Experiment-1/models/one_hidden_layer/fixed_last/best_training_0.0001.pt (torch, 1643 bytes, 1 tensors)

linear_layer_1.weight f8 [10, 10]
-0.11049575355265925 -0.18411339945201577 0.12076939255709507 -0.39602017192387623 -0.26021947506992915 -0.4134260961809492 -0.22047425862934153 -0.0641421224092919
-0.2809283114220073 -0.27664422144937356 -0.4193725904007501 0.07307844752550735 0.02467972578405297 -0.3621956882761218 0.09315831240010514 0.09765037163836399
-0.33149977948324894 -0.05845608843120209 -0.053066585861545966 -0.2981194502995274 -0.18669550761058015 -0.20920883895890743 -0.020983744692961128 -0.49838440398789
0.10254563751000965 0.01739976929971315 -0.2617352523010737 -0.2504662622198874 0.09159813163447976 -0.058422348153068834 -0.42594514807752787 -0.2763511118413345
0.10564561348619769 0.15652857790798727 -0.2533308923365168 -0.29983872571891357 -0.17318449382255274 -0.17717045191106207 -0.3911699118340763 -0.45610852625446274
-0.38926129589069897 -0.30344120897809373 -0.27168347525078823 -0.21262600805452 -0.18033193704080686 -0.026735825528942124 -0.26490182661262907 -0.11761261130750489
-0.05685219570529329 0.15096317181818186 -0.3749770523564662 -0.3211889711792903 -0.16283543905547887 -0.08297380678188894 -0.05283198068222624 -0.28094955339479
0.027628708495820165 0.006335254482977297 -0.336853533612358 -0.27864287221038253 -0.16753933513927727 -0.466154651634871 -0.03001034339942691 -0.26566606665657866
0.0975765425080066 -0.43147309170639214 0.13199422522970233 -0.47599847395269196 0.041363371839838264 -0.10739407661025599 -0.015753207405707497 -0.09145570697578347
-0.15390882214864485 -0.08141486774923583 -0.41939118054694874 -0.18160521217287492 -0.3095248517555798 -0.2521774696237716 0.08875497307543884 0.053335943860688184
-0.25126031041145325 0.06803802400827408 0.08129431307315826 -0.1845189779996872 -0.15008266270160675 -0.23815955221652985 -0.24478910863399506 -0.15050068497657776
0.1410483568906784 0.06429453194141388 0.07725867440314466 -0.17701344093459248 -0.20473474786614526 -0.13389609291338875 -0.01732005107582079 -0.15676756665919336
-0.043816087872336554 -0.4404189940483664 -0.0018505879131275862 -0.3650000636017
00000000: 2605 db1f 7349 bcbf ec6d b322 0791 c7bf
00000010: 68f8 632f beea be3f c309 befd 6458 d9bf
00000020: dc49 cd95 6fa7 d0bf 873f 9aba 9275 dabf
00000030: 8720 3621 8038 ccbf 7c3f 0b3e 9e6b b0bf
00000040: 5bfe 84bd bafa d1bf ff27 f0f6 89b4 d1bf
00000050: a70a 2722 00d7 dabf 141d 2ae6 44b5 b23f
00000060: bf8e 775c a445 993f 5a7b f9d2 362e d7bf
00000070: 9ce7 1b21 39d9 b73f 6807 a160 9dff b83f
00000080: c6c0 e0d9 4a37 d5bf 50d1 20d8 f4ed adbf
00000090: 5b49 9225 8b2b abbf 43a1 559a 6314 d3bf
000000a0: 13b0 bf6d a3e5 c7bf ed6a aef0 5ac7 cabf
000000b0: 57c6 d044 c37c 95bf 61b9 fdb2 87e5 dfbf
000000c0: 57f5 734f 6e40 ba3f 2f9e 66c0 3ed1 913f
000000d0: 99fa 3537 45c0 d0bf f716 3fa5 a307 d0bf
000000e0: cbaa bea3 f972 b73f c68d 58b5 88e9 adbf
000000f0: c580 3870 af42 dbbf e197 e492 bcaf d1bf
00000100: 769a e346 970b bb3f 6989 80e1 2009 c43f
00000110: b1b7 69c6 9236 d0bf fe5e 42c4 8e30 d3bf
00000120: e432 92d4 e82a c6bf 4c45 6378 85ad c6bf
00000130: 7f6b a086 ed08 d9bf a223 ecd0 e130 ddbf
00000140: 91be dc35 a8e9 d8bf 8f74 34ad 946b d3bf
00000150: 6d35 4416 4363 d1bf e3c4 6f3b 5437 cbbf
00000160: 4cde 01ee 1d15 c7bf 960c 1de1 a260 9bbf
00000170: 00ec 7cca 26f4 d0bf 60b3 292f dc1b bebf
00000180: 2c22 8522 bb1b adbf c004 eede c252 c33f
00000190: b1c6 27c0 9fff d7bf 9342 c32f 5c8e d4bf
000001a0: 2ec1 afaa cad7 c4bf a986 8d7a c53d b5bf
000001b0: eb16 6d1a cb0c abbf ee02 ead5 13fb d1bf
000001c0: f059 ae3d b34a 9c3f d241 0fed fef2 793f
000001d0: 290e 9a1f 028f d5bf ee0d dae9 48d5 d1bf
000001e0: 6ebf 9bce ed71 c5bf 529a e951 7ad5 ddbf
000001f0: eae1 c40d 08bb 9ebf 049b fc3e ac00 d1bf
00000200: 7ebb edba c6fa b83f dee8 7e50 419d dbbf
00000210: c6ab 4fd0 2fe5 c03f 71a7 a44d c276 debf
00000220: 5cd9 9b72 942d a53f 363e d39e 2d7e bbbf
00000230: 9b5e 75da 9b21 90bf 3b59 7e26 a469 b7bf
00000240: 27df d8c6 48b3 c3bf 4b21 64d2 9ad7 b4bf
00000250: bb84 2b1b 4ed7 dabf db66 88ef d63e c7bf
00000260: c5b9 e552 41cf d3bf d19d 34f8 ac23 d0bf
00000270: 0c64 b75a a5b8 b63f 2078 2a4d d94e ab3f
00000280: 0000 0020 a614 d0bf 0000 00a0 f06a b13f
00000290: 0000 0040 b4cf b43f 0000 0060 519e c7bf
000002a0: 0000 00a0 e835 c3bf 0000 0020 037c cebf
000002b0: 0000 00e0 3f55 cfbf 0000 0040 9b43 c3bf
000002c0: 0000 0060 df0d c23f 0000 0040 9b75 b03f
000002d0: 4cd1 e477 39c7 b33f c01c e25d 60a8 c6bf
000002e0: a24e 388b bf34 cabf f705 10d6 8123 c1bf
000002f0: 1e28 bef3 58bc 91bf 55f7 efa9 f510 c4bf
00000300: fa93 e6f0 0f6f a6bf 9e65 fe25 d32f dcbf
00000310: f726 2da4 ed51 5ebf 1e43 0d3a 295c d7bf
