Experiment-1/models/one_hidden_layer/fixed_last/best_training_0.01.pt (torch, 1643 bytes, 1 tensors)

linear_layer_1.weight f8 [10, 10]
000000 fd 5d 5f b4 4c ce bb bf 33 33 9c c7 bf 58 c7 bf
       -0.1086166324961297 -0.1823959088000265
000010 44 42 fe 4f 11 5f bf 3f 5e 0a 14 20 42 3b d9 bf
       0.12254436686476661 -0.3942418397202
000020 df df 03 cf 79 8c d0 bf 5d eb c2 80 d8 59 da bf
       -0.25857396332093957 -0.4117337472377381
000030 8f 3c 58 74 25 01 cc bf ac e8 a5 fc 00 fb af bf
       -0.21878498249904907 -0.06246188243945147
000040 58 d5 02 b2 22 df d1 bf 89 89 48 ef 1d 8d d1 bf
       -0.2792441118611655 -0.27423809402002824
000050 38 34 65 52 8e 7b da bf 38 12 27 02 ab 66 b4 3f
       -0.4137912563936115 0.0796915893798279
000060 98 1a 56 fe 8d 06 a0 3f 06 8a 9c d8 b8 d1 d6 bf
       0.03130000810329142 -0.35655041840996693
000070 ea ef e8 2e 8f 8f b9 3f 10 f0 53 c6 9d bf ba 3f
       0.0998467912222051 0.10448633281697561
000080 2b 30 7c 0f 1b d7 d4 bf 6c 33 98 c9 c4 b9 aa bf
       -0.32562901031701824 -0.052198552712161866
000090 73 95 ac a2 13 e0 a7 bf c8 0e e4 b6 5e b7 d2 bf
       -0.04663144455688952 -0.29244201527056335
0000a0 ea 52 d3 92 be 1d c7 bf 36 7a 9f 0d d3 05 ca bf
       -0.1805952279015835 -0.20330274739440463
0000b0 e3 26 7e f4 7f f5 8d bf 8a 8c 15 e0 b1 93 df bf
       -0.014628410004451314 -0.4933895767519024
0000c0 7b 9d 8f dd 07 fa bb 3f 45 81 4e 69 7d 56 98 3f
       0.1092839160843279 0.023767432739647338
0000d0 84 3e 56 fb de 5e d0 bf d4 60 77 47 46 4e cf bf
       -0.25579046768778135 -0.2445762490231177
0000e0 a7 53 6e 1c 6b 23 b9 3f af 05 77 3f 11 b6 aa bf
       0.0981966919337781 -0.0521703138324584
0000f0 89 79 84 f1 96 06 db bf 20 64 a6 17 c2 7c d1 bf
       -0.42227719865504604 -0.27323963460509226
000100 c6 91 be 36 7d 05 bc 3f fd 9a cc 13 5b 89 c4 3f
       0.10945875727208607 0.16044176546821368
000110 f8 97 f1 73 d2 07 d0 bf 26 7c 37 4b 6f fc d2 bf
       -0.2504774219763699 -0.29665739388832646
000120 7e 5a d8 4d 99 c6 c5 bf 4e 94 58 b5 28 3d c6 bf
       -0.1701232557395151 -0.17374142508302487
000130 1e 04 1b d5 04 c2 d8 bf 4e 0e 07 64 ad f5 dc bf
       -0.38684197245680874 -0.45249495285336117
000140 37 ab 4f ce 01 d0 d8 bf 23 85 40 72 04 45 d3 bf
       -0.3876957430608629 -0.30108748586106254
000150 03 1a 32 b7 b4 3a d1 bf 72 a3 e6 fb ad ef ca bf
       -0.269208125021038 -0.2104394416794793
000160 ea d2 35 82 f5 d0 c6 bf ab 6f 94 d5 89 eb 98 bf
       -0.17825192315981236 -0.024336007748487692
000170 bc 76 83 76 b5 ca d0 bf 71 2e 45 a2 2b 99 bd bf
       -0.26237236569964373 -0.11561844550777224
000180 ac 43 08 88 e1 d7 ab bf 3f af 71 d6 70 a5 c3 3f
       -0.05438141618299794 0.15348635168936117
000190 a7 25 7d 4c 1d d9 d7 bf 93 ff 29 77 c7 6a d4 bf
       -0.37262661428084204 -0.31901728283991665
0001a0 e1 a5 46 f6 f3 90 c4 bf 95 bd 51 e0 5f ab b4 bf
       -0.16067361378854542 -0.08073996759934794
0001b0 ce 77 a7 58 e5 c5 a9 bf 3c 28 d3 eb c9 d7 d1 bf
       -0.050337950775186976 -0.27879570035713974
0001c0 f4 4a 7e db db d9 9e 3f 9a 0f d5 b6 69 f4 81 3f
       0.030127940437135473 0.008766961948488295
0001d0 10 ab 45 f6 87 6e d5 bf 3a a2 30 17 12 b1 d1 bf
       -0.33487128305448355 -0.2764325357880214
0001e0 8d 26 dc ad fb f8 c4 bf 57 49 e6 15 9f a7 dd bf
       -0.16384836186653154 -0.46335580004337856
0001f0 66 6a 82 74 b2 f2 9a bf b9 4d e4 96 ba ca d0 bf
       -0.0263164409267155 -0.26237358794716276
000200 23 7c 65 07 cc f3 b9 3f 87 c2 2d 6d 13 6f db bf
       0.10137629681183617 -0.428654533977387
000210 36 25 02 d0 fe 5f c1 3f b1 08 79 3a 39 43 de bf
       0.13574204594287104 -0.47285299978478706
000220 a7 56 03 09 b5 15 a7 3f 48 02 ca 6a b7 af ba bf
       0.04508748755476449 -0.10424372059970566
000230 09 ac 89 a2 71 be 85 bf 3b c4 3f 4c 6d 27 b6 bf
       -0.010617149136313857 -0.08653910743284225
000240 5f 25 98 5e 28 21 c3 bf 60 ad 68 2c f9 94 b3 bf
       -0.14944939249861997 -0.0764919026775508
000250 1c ba bc 7e 22 91 da bf 86 4e 5d ba 2f b0 c6 bf
       -0.41510832192116864 -0.17725178336933228
000260 d5 bd bf 7e c2 85 d3 bf 71 2c a6 51 38 b0 cf bf
       -0.30503904702979173 -0.24756530749104713
000270 8a f2 b2 99 05 0e b8 3f 10 12 7f 24 d9 e3 ad 3f
       0.09396395685593908 0.058378968911288465
000280 00 00 00 20 a6 14 d0 bf 00 00 00 a0 f0 6a b1 3f
       -0.25126031041145325 0.06803802400827408
000290 00 00 00 40 b4 cf b4 3f 00 00 00 60 51 9e c7 bf
       0.08129431307315826 -0.1845189779996872
0002a0 00 00 00 a0 e8 35 c3 bf 00 00 00 20 03 7c ce bf
       -0.15008266270160675 -0.23815955221652985
0002b0 00 00 00 e0 3f 55 cf bf 00 00 00 40 9b 43 c3 bf
       -0.24478910863399506 -0.15050068497657776
0002c0 00 00 00 60 df 0d c2 3f 00 00 00 40 9b 75 b0 3f
       0.1410483568906784 0.06429453194141388
0002d0 8b 15 fc fd 2f cd b4 3f 13 09 e4 81 3b 2f c6 bf
       0.08125591231153899 -0.17331642000505862
0002e0 0d 8e 3b 07 16 be c9 bf a6 b7 c3 8e e6 ab c0 bf
       -0.20111346581607883 -0.1302459904758823
0002f0 0b 58 ca 44 d8 15 8b bf 8f b7 8c 3f e4 94 c3 bf
       -0.01322525939876231 -0.15298131087314146
000300 98 e0 e2 32 a3 56 a4 bf 25 44 d4 b1 37 f9 db bf
       -0.039723491632174646 -0.4370860325444162
000310 83 91 0c 8f 33 cd 62 3f bc d7 bc 68 60 26 d7 bf
       0.002295113278153406 -0.3617173216656473
