Experiment-3/blob_2D/models/conv2D_sum.pt (torch, 120811 bytes, 1 tensors)

weight f4 [1, 3, 100, 100]
000000 08 71 aa be 98 de 11 bf 7c 14 45 bf ee cd 28 bf
       -0.3328936 -0.56980276 -0.7698438 -0.65939224
000010 51 2b 27 bf 90 f6 23 bf dc 10 28 bf c3 43 3e bf
       -0.6530047 -0.640481 -0.65650725 -0.74322146
000020 53 a9 16 bf c4 55 b6 be 18 b8 ab be 2f 4a 12 bf
       -0.5885212 -0.3561231 -0.3353889 -0.57144445
000030 a0 3a 49 bf 45 93 27 bf 63 78 25 bf aa 36 22 bf
       -0.7860508 -0.6545909 -0.6463682 -0.6336466
000040 0d 19 23 bf 91 e6 4a bf 44 13 13 bf 2a 81 a7 be
       -0.637101 -0.79258066 -0.5745127 -0.32715732
000050 83 68 b4 be 07 18 11 bf 04 b3 44 bf de f2 22 bf
       -0.35235986 -0.5667729 -0.76835656 -0.63651836
000060 79 3a 2a bf 06 16 24 bf 6c 33 20 bf ad 91 46 bf
       -0.6649547 -0.64096105 -0.62578464 -0.77566034
000070 80 5e 18 bf de de b3 be 69 48 a9 be 8e a1 10 bf
       -0.59519196 -0.35130972 -0.33063057 -0.5649651
000080 16 ba 45 bf ed 07 26 bf 61 c5 27 bf f8 69 23 bf
       -0.7723707 -0.64855844 -0.6553555 -0.6383357
000090 6d 89 24 bf 79 6d 45 bf 7a 82 18 bf ce 07 ab be
       -0.64272195 -0.77120167 -0.5957409 -0.33404392
0000a0 21 28 b3 be e5 69 11 bf aa dc 40 bf 86 2e 25 bf
       -0.34991553 -0.5680221 -0.75336707 -0.64524114
0000b0 ec 57 26 bf 17 e0 23 bf f6 7d 24 bf 53 ff 44 bf
       -0.6497791 -0.6401381 -0.642547 -0.76952094
0000c0 df 10 16 bf f4 6e a0 be 9e d3 b2 be f9 56 08 bf
       -0.58619493 -0.3133465 -0.34927076 -0.5325771
0000d0 71 1b 45 bf 7b e3 25 bf 14 22 30 bf 25 b9 1a bf
       -0.76995 -0.6480023 -0.68802 -0.6043876
0000e0 07 7b 24 bf 4c 20 3f bf 1f 70 19 bf 6f 46 b7 be
       -0.64250225 -0.74658656 -0.5993671 -0.35795924
0000f0 5a b9 ae be da df 11 bf 03 16 3f bf 20 f0 26 bf
       -0.34125787 -0.56982195 -0.7464296 -0.6521015
000100 db 0d 27 bf 68 a0 26 bf a4 79 22 bf 32 13 45 bf
       -0.65255517 -0.6508851 -0.6346686 -0.76982415
000110 75 1f 1a bf d9 0b bb be 65 ce b8 be 73 d9 0b bf
       -0.6020425 -0.36532477 -0.36094967 -0.54628676
000120 45 0d 46 bf 37 cb 23 bf d0 e1 2b bf e8 af 23 bf
       -0.77364 -0.63981956 -0.6714144 -0.63940287
000130 16 86 22 bf d1 ef 3f bf dd 9f 1a bf 60 fc aa be
       -0.6348585 -0.74975306 -0.6040018 -0.33395672
000140 2e 42 b1 be 20 f5 12 bf 74 3b 40 bf 80 af 29 bf
       -0.34620804 -0.5740528 -0.7509072 -0.66283417
000150 d9 85 24 bf e5 f2 26 bf 44 c5 26 bf d5 b8 3e bf
       -0.64266735 -0.6521438 -0.65144753 -0.7450078
000160 55 1d 18 bf 57 1e af be 60 2e b2 be c0 73 15 bf
       -0.5941976 -0.34202835 -0.34801006 -0.58379745
000170 3f 16 44 bf 5a 19 29 bf 67 22 26 bf 40 5b 24 bf
       -0.76596445 -0.6605431 -0.64896244 -0.64201736
000180 f2 ad 1c bf c1 d7 45 bf e0 41 15 bf f5 79 b9 be
       -0.6120292 -0.7728234 -0.5830364 -0.36225858
000190 0a 66 ce be 26 00 11 bf c8 6f 44 bf dd 10 24 bf
       -0.40312225 -0.5664085 -0.76733065 -0.6408823
0001a0 92 45 28 bf 0f 68 24 bf a7 6e 24 bf 51 68 3c bf
       -0.65731156 -0.6422128 -0.6423134 -0.73596674
0001b0 e1 42 0f bf 15 11 b6 be 92 c0 b5 be 4a 42 14 bf
       -0.55961424 -0.35559908 -0.35498482 -0.5791365
0001c0 2c d7 45 bf f6 3f 24 bf 98 1d 28 bf 55 32 21 bf
       -0.7728145 -0.64160097 -0.65670156 -0.62967426
0001d0 47 5e 20 bf 63 a8 3e bf 2f d7 15 bf e9 23 b8 be
       -0.62643856 -0.7447569 -0.5853147 -0.35964897
0001e0 9d a8 c2 be ad fd 11 bf d9 d7 40 bf d7 66 26 bf
       -0.38019267 -0.57027704 -0.7532936 -0.6500067
0001f0 6b e6 2a bf 7b 60 25 bf 53 6f 21 bf 59 de 41 bf
       -0.6675784 -0.6460034 -0.6306049 -0.757299
000200 1e e1 13 bf ef 03 bc be e6 d2 c4 be 48 34 14 bf
       -0.57765377 -0.3672175 -0.38442153 -0.57892275
000210 2e bc 45 bf 48 65 20 bf 36 38 29 bf 79 65 23 bf
       -0.77240264 -0.6265454 -0.66101396 -0.6382671
000220 c3 5e 1e bf 35 7c 3f bf 95 c9 11 bf 3e bd b8 be
       -0.61863345 -0.747989 -0.56948215 -0.3608188
000230 81 eb bd be 48 3e 11 bf d4 0c 43 bf 3b 42 20 bf
       -0.37093738 -0.5673566 -0.7619145 -0.6260106
000240 1f 6b 26 bf 0a eb 22 bf 56 35 28 bf 95 82 3e bf
       -0.65007204 -0.6363989 -0.65706384 -0.74418
000250 89 c4 14 bf 3c 30 b8 be 04 b9 c0 be fb 28 10 bf
       -0.5811239 -0.359743 -0.37641156 -0.5631253
000260 76 cf 46 bf 10 f6 20 bf 7c 7c 2c bf dc 48 23 bf
       -0.7766031 -0.6287546 -0.6737745 -0.6378305
000270 21 5b 23 bf 57 7c 3a bf 44 fa 14 bf c8 f9 bf be
       -0.63810927 -0.7284598 -0.58194375 -0.37495255
000280 97 d4 bb be d4 05 14 bf 62 50 40 bf 91 fe 24 bf
       -0.3668563 -0.57821393 -0.75122654 -0.6445094
000290 fe d8 23 bf 5f bb 25 bf 8d 62 22 bf ca a2 40 bf
       -0.6400298 -0.6473903 -0.63431627 -0.75248396
0002a0 77 b9 13 bf a0 76 ae be 4c 21 bd be de cf 11 bf
       -0.5770487 -0.3407488 -0.36939466 -0.56957805
0002b0 7f a5 45 bf 67 88 21 bf d5 d4 28 bf 59 ab 26 bf
       -0.7720565 -0.6309876 -0.65949756 -0.65105206
0002c0 b5 56 23 bf ef e2 40 bf b8 22 18 bf 55 90 b3 be
       -0.6380418 -0.75346273 -0.59427977 -0.35071054
0002d0 5f f4 b8 be 2c 39 13 bf a9 0c 43 bf 63 ff 21 bf
       -0.3612394 -0.5750911 -0.7619119 -0.63280314
0002e0 f6 d6 2b bf 94 17 22 bf fb b1 1e bf 08 3b 3e bf
       -0.6712488 -0.6331723 -0.61990327 -0.74308825
0002f0 d3 82 18 bf 47 73 b4 be 83 b0 bb be 3a 47 12 bf
       -0.5957462 -0.352442 -0.36658105 -0.57139933
000300 62 fb 40 bf bc ae 24 bf 6e a7 28 bf 5f b2 20 bf
       -0.7538358 -0.64329123 -0.6588048 -0.6277217
000310 8f ba 23 bf 91 7c 3d bf 53 42 17 bf 2a 2e b0 be
       -0.6395654 -0.740182 -0.5908558 -0.3441022
000320 01 7f b5 be 2c c9 0c bf 7a 1a 43 bf 22 88 20 bf
       -0.3544846 -0.54994464 -0.76212275 -0.6270772
000330 85 d8 27 bf fc 4b 18 bf 33 c4 25 bf fa a9 4b bf
       -0.6556476 -0.5949094 -0.647525 -0.7955624
000340 f4 de 0d bf 14 41 af be bf c4 a9 be 9b 97 12 bf
       -0.55418324 -0.34229338 -0.33157918 -0.5726258
000350 eb 77 46 bf 13 53 1f bf 35 5d 29 bf 61 d2 19 bf
       -0.7752673 -0.62236136 -0.6615785 -0.6008664
000360 42 d2 24 bf 04 52 45 bf c6 9f 0e bf 5d 5f a4 be
       -0.6438333 -0.7707827 -0.55712545 -0.32104006
000370 a6 ea b7 be c6 7f 13 bf 66 6b 45 bf d0 d3 21 bf
       -0.3592121 -0.5761684 -0.77117 -0.63213825
000380 61 f0 28 bf 28 06 19 bf 06 c5 27 bf c5 9b 49 bf
       -0.6599179 -0.5977502 -0.6553501 -0.7875331
000390 54 41 0e bf c7 9c a7 be d4 6b ae be 71 52 12 bf
       -0.5556843 -0.327368 -0.3406664 -0.57157046
0003a0 a7 f8 45 bf a3 c9 21 bf 73 e6 26 bf ea 30 1a bf
       -0.7733254 -0.631983 -0.6519539 -0.60230887
0003b0 f5 c2 26 bf 5f 29 4a bf 81 fb 0c bf 61 1f a1 be
       -0.6514123 -0.7896938 -0.55071265 -0.31469253
0003c0 e7 8b b4 be ca df 12 bf 65 cb 46 bf a0 d9 1f bf
       -0.35262987 -0.57372725 -0.77654105 -0.62441444
0003d0 fe 57 27 bf f0 34 19 bf 3e 11 29 bf bb e5 49 bf
       -0.6536864 -0.598464 -0.66041934 -0.78866166
0003e0 28 07 0b bf 21 af 9f be 6d 24 b3 be a6 78 12 bf
       -0.54307795 -0.311883 -0.34988728 -0.57215345
0003f0 ee 88 49 bf 03 cf 1e bf 10 88 27 bf 08 ba 1a bf
       -0.78724563 -0.62034625 -0.6544199 -0.6044011
