Experiment-1/models/one_hidden_layer/best_training.pt (torch, 1959 bytes, 2 tensors)

0.weight f8 [10, 10]
00000000: 5fce cc34 ea8f dc3f 6406 0ee5 9683 c73f
00000010: 9418 810d 6004 c83f e87e 6630 db29 e03f
00000020: 8777 1e3e 039d dd3f 5e63 28bb 7fe0 c53f
00000030: 6eb5 bef4 4eb2 d13f 47f1 faa0 22c1 dc3f
00000040: 4442 5b49 8d0a da3f 9fb2 d1d1 d0a5 d63f
00000050: 1ee9 c2bf 92c7 dc3f 082f f091 dcc1 e03f
00000060: 01fa 1b5e b7f2 cc3f 190e 122d fd33 dc3f
00000070: 2fe3 6162 4ab5 e43f afa5 41a3 f95e d23f
00000080: 3f5d d188 cd29 d73f 38f8 64dd c986 dd3f
00000090: a662 6fa3 494e ce3f 6405 db76 44b7 e43f
000000a0: e6e6 0d3b faad b83f 7713 bd26 b94a d9bf
000000b0: a748 f7d5 90d5 b03f 5f36 7cab ac1f 9b3f
000000c0: 576a f282 a860 a23f 79d2 487e 7b71 b63f
000000d0: c347 322c 0cc1 cfbf 5dbb bf4a d0a8 d5bf
000000e0: 6b70 52a5 856e dbbf 96c6 7e2c bf4d c03f
000000f0: 63e6 01d2 00b2 d7bf d52e d67d 350b c73f
00000100: 69d8 4f7d d526 c0bf 0775 17ee ecf9 d7bf
00000110: 850e e2a0 a501 cfbf 3ccc 5798 f6eb d1bf
00000120: b453 5201 2d02 b23f 3d65 bb31 e60e b2bf
00000130: ac78 78ff f597 c8bf dddb 9b54 d9ea c8bf
00000140: f01a 5822 2b2e ce3f 9e24 7cd5 737a e03f
00000150: b514 e101 5e7d de3f 0eba d4fb 2754 e03f
00000160: de2a 493d cbc5 bb3f c16a 602f 8460 e03f
00000170: 1c86 3c02 9e47 e33f 91d0 2ef7 ce57 c13f
00000180: 15f7 7947 856a d93f f2da 87c1 8863 d23f
00000190: 23bd 97eb 6315 d13f 3059 9a9a 410a ca3f
000001a0: 10ad 263d 5c9b da3f 1415 6887 e864 bc3f
000001b0: 962c 60e4 a850 c83f 29a4 ac75 6155 df3f
000001c0: 233c c6ef b633 bb3f b744 f33e 5cfb d53f
000001d0: 3a2f 2a98 b43b bc3f aeb0 9437 a733 d03f
000001e0: c795 a3bf 2e56 e03f bf7e b8eb 3c01 9f3f
000001f0: ab00 3c00 91d6 b23f 6ec0 730d f2f5 b0bf
00000200: cbfc a339 5106 e13f 60aa 1a97 4926 e03f
00000210: a223 5384 eb38 e13f def7 4568 fc75 ab3f
00000220: f09c d544 4bc2 d73f 4a8a 0cc5 e7ad d03f
00000230: a4ac b4b6 78b7 bbbf f8a2 e23e 97a9 bbbf
00000240: 6b31 6aff ccb7 c6bf 814e e92b fcf2 cabf
00000250: dfa3 4797 8108 c23f ebb5 9eff 0ea0 bd3f
00000260: 6475 460f 39d1 d6bf 7ef3 8cc2 6e00 c6bf
00000270: ef85 7c15 5696 d1bf a094 5323 798d c8bf
00000280: c040 d3f4 3624 b53f a75e cf6b 3394 de3f
00000290: 9a94 0d23 d85b d13f 1363 d5ac d192 d83f
000002a0: bf6b 44bf 48f9 cf3f 432e 263e 08c2 bf3f
000002b0: 8ea6 4e32 2272 d53f 676a eced bfd0 cd3f
000002c0: 67e2 dcd2 0799 dc3f 77f1 7c79 77be dc3f
000002d0: 9231 8396 b7df d33f b8f7 ab53 67c6 e03f
000002e0: 776f 51b8 bed4 e33f 9e55 e468 8892 e03f
000002f0: 2f68 bf74 aa68 cd3f e06a 72e7 daa3 c13f
00000300: 3e44 719d 5fde c83f e385 34ad d662 e43f
00000310: 4f35 a8c9 0455 dc3f f2ac 7903 b256 c93f
0.44628386646511403 0.18370329078975367 0.18763352069271788 0.5051094003028682 0.4627082926398249 0.1709136642318993 0.2765080823981724 0.44928804131247485
0.40689403690069903 0.35387058725499715 0.44968098379799126 0.5236647463184179 0.2261571130292879 0.4406731548444625 0.6471301957636565 0.2870468229580991
0.36192644463649865 0.4613518392615137 0.2367641494772858 0.6473715134999734 0.09640468541865807 -0.39518574507774623 0.06575875495699056 0.02648801609671236
0.03589369390939073 0.08766910393826234 -0.24807884367015562 -0.3384285669298402 -0.42862073082665714 0.12737264320962954 -0.37023945339715264 0.1800295700489786
-0.12618511790032308 -0.3746292424310273 -0.24223776202790162 -0.2800270545696468 0.07034570009484648 -0.07053984369431006 -0.19213747953557936 -0.19466702109613623
0.23578395058594692 0.5149478120448696 0.4764018076278476 0.5102729719708934 0.10848684545741658 0.5117817807507309 0.6024923366241555 0.1354922015140159
0.39712650280113 0.28732508563500325 0.2669305611334087 0.20343799637766713 0.41573244067940696 0.11091473871063712 0.18996153975635782 0.4895862244762293
0.10625785211435405 0.3434668173550323 0.11028603281937147 0.2531526606351332 0.5105203383397389 0.0302781599876869 0.07358652358743949 -0.06625283077642205
0.5320211530487539 0.5046737624409836 0.5381982407062547 0.05363453648440929 0.3712337658129874 0.2606143402391906 -0.10826830349531008 -0.10805650029454827
-0.17748415442873564 -0.21054031509503449 0.14088458906851906 0.11572355023118745 -0.35651995174142415 -0.17188820361652896 -0.2748007974460895 -0.19181741928983786
0.08258384205987834 0.47779546287845637 0.27123073027753153 0.3839611232593125 0.2497950490877354 0.12405444638550826 0.3350911608964474 0.23293303601606682
0.4468402442176171 0.4491251646429854 0.31052961061939144 0.5242191919530717 0.6197198486292866 0.5178873108549629 0.2297566480691002 0.13781296063537862
0.19428630054111012 0.6370652563966214 0.4426891297633419 0.19795823259060047

2.weight f8 [1, 10]
00000000: 9f52 e644 3a15 df3f 5fb1 df05 de0e d63f
00000010: 196f ac25 6966 b23f d0f1 ae53 4d7c 94bf
00000020: c457 5d0f 14ea dc3f d6e1 46f8 8773 e23f
00000030: 0ade 8ff5 c798 da3f 074d 1de6 beea c3bf
00000040: df8e 0d13 e18a d33f 0b60 b873 4648 db3f
0.4856706307266822 0.3446574265824633 0.07187516374363802 -0.020005424721363074 0.4517870092434999 0.5766029214055901 0.4155750177446583 -0.15560137020165873
0.3053515134872508 0.42628632832338614
