Experiment-1/models/one_hidden_layer/best_validation.pt (torch, 1959 bytes, 2 tensors)

0.weight f8 [10, 10]
0.3849070592395631 0.3293852319552429 -0.09638134219179176 -0.013434190101724362 0.33666076462774486 -0.09552004494083892 -0.023499363045933065 0.19728347250106593
0.05701839381984938 -0.23800751484130203 0.11919024126996274 -0.30552106665364803 -0.016131564733382585 -0.04887210218318953 0.14078308742404871 -0.2819626204526514
-0.20070469437355357 -0.1499795215806031 -0.15610298034523212 -0.061209302888479325 -0.5810145922216822 -0.4910277805659747 -0.3866507620666773 -0.13662412796095194
-0.484078886404528 -0.21269892200030177 -0.5528983836313811 -0.4557377366460169 -0.04461248484823445 -0.23783852269135036 0.31073715071536134 0.40909852091863
0.5238718369883806 0.49595516621686164 0.47631859216952205 0.34149207733959114 0.5486659718377849 0.40087349258644894 0.6186722461578867 0.6738819340494713
-0.6010055091055516 -0.23881956131174306 -0.13792223924918523 -0.24393471069266723 -0.208277413211267 -0.5403010682335949 -0.6930313874931291 -0.28387993940763667
-0.24293039523103668 -0.6295877605170397 0.5533190095446734 0.26594868577710823 0.29852736421500303 0.24314475565256977 0.16125287982838188 0.582954462584829
0.12097472966049183 0.6167811723963701 0.45715872314941425 0.5819527597336184 0.1875524246421939 0.45299540309673725 0.31426888391267743 0.5323770199133319
0.5840134467812477 0.6664836495001484 0.4470298692470128 0.1468121275591425 0.38111877140314016 0.07504355712990703 0.5543810001229132 0.5907654290226543
0.6676448561624665 0.4187391426663479 0.1978770518574134 0.13637692050729952 0.714668545322035 0.6728279246375698 0.5625707571419798 0.579974461077593
-0.18765718727014102 -0.5577348006738734 -0.13621750081714212 -0.42859803448289663 -0.5469495352138407 -0.34063025035349664 -0.21106797485514955 -0.10439855403643332
-0.2575621840601106 -0.5057110017657415 0.4670278254432315 0.31668121245797765 0.35584310363361177 0.48227982217697773 0.6801152432534385 0.5559761737772101
0.27390514328290144 0.25306460036302186 0.06714020600486924 0.30151318509066044
00000000: c7bd db37 51a2 d83f 011f c2cb a514 d53f
00000010: 5a88 a898 72ac b8bf 1fcb 1479 6283 8bbf
00000020: 880a 7b97 d98b d53f 7323 226d 0074 b8bf
00000030: 0a55 098f 3710 98bf 7079 37b7 9540 c93f
00000040: 3c12 74d1 8331 ad3f 4d0a 39be 0777 cebf
00000050: 3bc0 416c 4083 be3f 970d 613b a88d d3bf
00000060: 364d dafb ca84 90bf 258c 20a1 c305 a9bf
00000070: 2e79 2822 2e05 c23f 6678 62f2 ac0b d2bf
00000080: a979 3e01 b1b0 c9bf cb13 216a 8732 c3bf
00000090: 1a09 b2b5 2efb c3bf 6ae4 3b64 d356 afbf
000000a0: a9e8 02ea ab97 e2bf 3555 bdc8 ff6c dfbf
000000b0: d930 83d6 e2be d8bf 51e9 b740 e67c c1bf
000000c0: b4a8 7202 26fb debf 4a60 f1e0 b739 cbbf
000000d0: 4ba8 76f3 57b1 e1bf 2ca7 9c9c ce2a ddbf
000000e0: 923a d596 72d7 a6bf 561a 5822 7e71 cebf
000000f0: 7c61 fe12 1ee3 d33f cdff 0b90 ab2e da3f
00000100: 2023 e5de 8ec3 e03f 2ac1 cbbc babd df3f
00000110: 2b12 f6f9 007c de3f bd10 0196 01db d53f
00000120: 3e15 aff0 ab8e e13f 837e 1f4b e9a7 d93f
00000130: 8d1c 06bd 29cc e33f 5872 83d8 7090 e53f
00000140: a35f cae7 6f3b e3bf fb4f bdae a391 cebf
00000150: f8b0 7b99 6fa7 c1bf 8f61 64aa 4039 cfbf
00000160: 8772 1e93 d5a8 cabf 36d4 4177 254a e1bf
00000170: c44d 0c29 502d e6bf bec2 efc3 162b d2bf
00000180: 415f 5cdb 5718 cfbf fa3d 2c3b 9525 e4bf
00000190: c6fb 4711 cab4 e13f 47eb f4a2 4d05 d13f
000001a0: e0ed 9084 121b d33f 9c60 dc0a 5e1f cf3f
000001b0: 00d6 9f32 efa3 c43f b77d fb1d 90a7 e23f
000001c0: d8c4 882b 33f8 be3f ec63 87de abbc e33f
000001d0: a780 40a9 1642 dd3f 47ee db64 5b9f e23f
000001e0: 4cd6 0fc5 b701 c83f 167c 626e e0fd dc3f
000001f0: 2f8b a33c fb1c d43f 316e 3588 3b09 e13f
00000200: b430 cbf7 3cb0 e23f e97f bd84 d553 e53f
00000210: a211 302b 239c dc3f bfe7 4263 bdca c23f
00000220: 2d5d c4fc 3f64 d83f 5d01 a6f7 0d36 b33f
00000230: 66a7 2139 7dbd e13f 8a4f a8e6 8ce7 e23f
00000240: f1ee d1be 585d e53f 95a6 d342 9fcc da3f
00000250: 5aa1 2d05 0954 c93f 8f07 c186 cc74 c13f
00000260: c76a b491 90de e63f dfec 846d ce87 e53f
00000270: 5c8b 7363 9400 e23f d8fd da99 268f e23f
00000280: 14a1 1795 2605 c8bf 1c88 17a7 f6d8 e1bf
00000290: 6c84 9337 936f c1bf 91f8 4e73 266e dbbf
000002a0: 7ec9 c94f 9c80 e1bf d9fa 52d2 e2cc d5bf
000002b0: 462f 9e80 4604 cbbf 3b0f 5617 ddb9 babf
000002c0: 555e 4e19 e67b d0bf d3f5 b9d6 c82e e0bf
000002d0: 7a71 26ad c8e3 dd3f e4ef b046 8144 d43f
000002e0: 9b43 2727 22c6 d63f 0855 f12f acdd de3f
000002f0: 781b e90a 81c3 e53f 7b4e 778b 8eca e13f
00000300: e5cc 2670 a987 d13f 4368 95dd 3532 d03f
00000310: 37a1 09bd 1930 b13f 57bd 51f5 fd4b d33f

2.weight f8 [1, 10]
0.14890273369486848 0.005041296683271501 0.16008458761570188 0.5126458627262616 0.18829272811044542 0.41961617660331324 0.4543669441717157 0.5011533090501524
0.21503548776648465 0.40113673764960556
00000000: 0f92 c0a9 3e0f c33f a635 25c6 2ea6 743f
00000010: 5498 33da a67d c43f 14d9 da4b 9867 e03f
00000020: c18c a7e2 f919 c83f 0790 d8ce fdda da3f
00000030: 6776 6617 5914 dd3f fbe1 14aa 7209 e03f
00000040: e9dd b769 4886 cb3f d077 5b6c 39ac d93f
