permutation-equivariance/models/one_hidden_layer/fixed_last/best_training_100.pt (torch, 1259 bytes, 1 tensors)

linear_layer_1.weight f4 [10, 10]
0	0xbd83e386	-0.06439881
1	0xbd92787f	-0.07151889
2	0x3d8cfa38	0.06883663
3	0x3ea8b3cd	0.32949677
4	0x3e60a029	0.21936096
5	0x3d8b86fd	0.06812856
6	0x3e2cce84	0.16875654
7	0xbe5631ae	-0.20917389
8	0x3e0470ca	0.1293365
9	0x3ebbd9d9	0.36689642
10	0x3e701691	0.23446108
11	0x3ea92ff4	0.33044398
12	0x3ecb41cd	0.3969864
13	0x3e7722ca	0.24134365
14	0xbbc3a8d6	-0.0059710545
15	0x3dd2116b	0.102572285
16	0xbd571453	-0.052509617
17	0x3df4a2b4	0.11945096
18	0x3e25da09	0.16196455
19	0xbd93704d	-0.07199154
20	0xbe4e2ff9	-0.20135488
21	0x3e953cfb	0.29148087
22	0x3eace75a	0.33770257
23	0xbca5b34c	-0.020227097
24	0xbe4b3a8b	-0.19846551
25	0x3da20e8a	0.07912929
26	0x3ba0846d	0.004898599
27	0xbe133d57	-0.14378868
28	0x3d3866d8	0.045019954
29	0x3e24cc5f	0.16093586
30	0x3e5d83c0	0.2163229
31	0xbd1aee2c	-0.037824795
32	0x3e88de66	0.26732177
33	0x3ea07fff	0.31347653
34	0xbc085877	-0.008321873
35	0x3e8eb397	0.2787139
36	0x3e9e2bf8	0.3089292
37	0x3d90257c	0.070383996
38	0x3e53d8c6	0.20688161
39	0xbca56559	-0.020189928
40	0xbc2b4369	-0.010453084
41	0x3ecb1554	0.3966471
42	0x3df69247	0.12039619
43	0x3cb73564	0.022364326
44	0x3da37c49	0.0798269
45	0x3dd99a7e	0.1062517
46	0x3e2ce1a5	0.16882952
47	0xbdcaa40f	-0.09894573
48	0xbccea130	-0.025223345
49	0xbd9688ff	-0.07350349
50	0xbe290712	-0.16506603
51	0xbe34705c	-0.17620987
52	0x3d9b6919	0.07588405
53	0x3e947323	0.28994092
54	0xbe002872	-0.12515429
55	0x3c10fd98	0.008849524
56	0x3e861a6e	0.2619204
57	0x3e3e1557	0.18562828
58	0x3d689056	0.056778274
59	0x3e343a22	0.17600301
60	0x3d7338b8	0.059380263
61	0xbd956c68	-0.072960675
62	0x3e8c461e	0.27397245
63	0x3e33d31d	0.17561002
64	0x3ec4bf8c	0.3842739
65	0x3e7419ac	0.23837918
66	0x3e8568ef	0.2605662
67	0xbe0ed868	-0.1394974
68	0xbd9e14aa	-0.07718785
69	0x3e0e40bf	0.13891886
70	0xbe397cfe	-0.18114087
71	0xbdb0379f	-0.08604359
72	0xbe0824c8	-0.13295281
73	0x3e94b372	0.29043156
74	0xbd0a6ea2	-0.033796914
75	0x3ece035c	0.40236938
76	0x3de68481	0.11255742
77	0xbb9fbf92	-0.004875132
78	0xbe24dd5c	-0.16100067
79	0x3dceffcc	0.10107383
80	0x3e95d7e5	0.29266277
81	0x3d09bd9c	0.03362809
82	0x3d6dffb0	0.05810517
83	0x3deb4be6	0.11489086
84	0x3e712d9b	0.23552553
85	0x3e3d4406	0.1848298
86	0x3ea5191b	0.32245716
87	0xbe08c341	-0.13355733
88	0xbe2ddafd	-0.16978069
89	0x3e9d6fb8	0.30749297
90	0x3db8d84e	0.09025632
91	0x3ea8208a	0.32837325
92	0x3e0c0efd	0.13677593
93	0x3d94da28	0.072681725
94	0x3d488e35	0.048963744
95	0x3debd239	0.11514706
96	0x3db22451	0.08698333
97	0xbe260ccd	-0.1621582
98	0x3dc03c00	0.09386444
99	0x3eb370a9	0.3504689
