permutation-equivariance/models/one_hidden_layer/fixed_last/best_validation.pt (torch, 1259 bytes, 1 tensors)

linear_layer_1.weight f4 [10, 10]
00000000: 6fa9 353b 077c 12bb 4882 163d 12e2 7b3e
00000010: 7361 523e 345d 7e3d 5ec4 be3d febd a9ba
00000020: a305 2b3e ad9c 9d3e 75e8 883e 90f4 a83e
00000030: 329a b73e e534 3b3e 8d3f 643d 8529 e03d
00000040: 767c b9bc 26ef 9c3e b12c 823e d436 f8bc
00000050: a7a3 9cbe 8b36 1abb d791 333b f76e 26be
00000060: 4d02 9ebe 1e01 b1bd a0a0 17be 5de1 49be
00000070: 38a3 b6bd d98e 42bd 7964 813e 6553 7f39
00000080: 570c 693e a7e0 843e c2d9 b93c f2bc 913e
00000090: 5d86 833e 191e 863e 3c11 9d3e 750a 1abc
000000a0: 8410 14ba 5bb1 bb3e 6b62 1dba 2d0e f5b9
000000b0: 35e8 68ba 6786 29ba 307a 5e3d 8bba 01ba
000000c0: 0aa4 30ba 98cf 93ba b243 71b9 d885 22bc
000000d0: 411d 713d 278f 2f3e ed63 063c 058a 4d3d
000000e0: 9831 263e ab10 c23e 5ef3 e03d 6d55 bb3d
000000f0: 3018 743d 3731 02bd 2911 623e 2c18 c63d
00000100: 9ce4 d23e 1b92 683e f940 453e 85f9 fc3c
00000110: 3182 7c3c ab7b 943d d2ea 92be 369e 50be
00000120: d1d2 85be 1e29 9cbc 12f3 2bbe 8e7d 423d
00000130: f972 c6bd 39ec e1bd e3b7 81be 99de cabd
00000140: 376a a23e cba0 c23c d4c0 ac3c dbbf 3c3d
00000150: 6d03 803e 11a5 2c3e 1dca 843e 9e8a cf3c
00000160: 0596 b7bc 4fd1 833e c5dd d03d deda a53e
00000170: e2ab a03d d47d acba 2cfb 443d b10a cb3d
00000180: e2c4 de3b c8b9 98ba b9cf 2e3e 184d 9f3e
0.0027719398 -0.0022351758 0.03674534 0.24597958 0.20544986 0.062100604 0.09314798 -0.0012950299
0.16701369 0.30783597 0.2673985 0.32999086 0.3585983 0.18281896 0.05572467 0.10945419
-0.022642355 0.30651206 0.25424722 -0.030299582 -0.30593607 -0.0023531045 0.002740016 -0.16253267
-0.3086113 -0.08642791 -0.14807367 -0.19714876 -0.0891785 -0.04749951 0.25271967 0.00024349762
0.22758614 0.25952646 0.022686843 0.28464466 0.2568845 0.26194838 0.3067721 -0.009401907
-0.0005648213 0.3665875 -0.000600374 -0.00046740603 -0.0008884699 -0.0006466866 0.054315746 -0.00049487565
-0.0006738311 -0.0011277078 -0.0002300877 -0.009919606 0.05886579 0.17144452 0.008202535 0.050180454
0.16229856 0.37903342 0.109839186 0.09147153 0.05959338 -0.031785216 0.22076859 0.09672579
0.4119004 0.22711985 0.19263066 0.030880699 0.015411899 0.0725015 -0.2869478 -0.20372853
-0.26137403 -0.019062575 -0.16791943 0.04748302 -0.09689898 -0.11031384 -0.25335607 -0.099057384
0.3172166 0.023758313 0.021088041 0.046081405 0.25002614 0.16859843 0.2593545 0.025334653
-0.022410402 0.25745627 0.10198549 0.32393545 0.07845284 -0.0013160058 0.0480911 0.099141486
0.0067983726 -0.0011652047 0.17071427 0.31113505
