permutation-equivariance/models/one_hidden_layer/fixed_last/best_training_10.pt (torch, 1259 bytes, 1 tensors)

linear_layer_1.weight f4 [10, 10]
00000000: 00dc ad3c 32b1 b93b 14e0 273d 1ac9 5d3e
00000010: b920 353e f31d 653d f8bb ef3d 33f1 b7bc
00000020: 66f5 e03d b713 833e 4501 5c3e 208b 863e
00000030: a7ce 9e3e 5c6d 283e 422b e23c 2b71 763d
00000040: 3a58 5a3b e9e9 d73d c4db 0c3e 933c 2abc
00000050: 7808 043d 0bf7 ca3e 80b9 853e 3449 67bb
00000060: c84e 4fbb aea0 69bb c00e b2ba f2d4 b03e
00000070: d2ab bc3e 5ad0 d03d 7d9b 4c3e c8c8 c4bb
00000080: 6888 373e cd69 703e f8f3 793c 1762 4f3e
00000090: 6702 823e 7ffa 683d 0213 3c3e 85cf 6ab9
000000a0: 82e1 d2bd 71ca 1b3c 36f1 6dbd 1b54 8bbd
000000b0: 8bab 7dbd 151e 73bd ed11 0ebd c029 f1bd
000000c0: 2ef8 b5bd f7bb c0bd fa49 79be c0a6 7dbe
000000d0: f3de 9fbd c730 1fba 79eb 5fbe 2495 febd
000000e0: 86d9 16ba 1d13 32bc 30dc a8bd aaa6 21bd
000000f0: 67bc 873d 17d1 b8b9 ca80 393e 5e9f c23d
00000100: 1abf b53e 5225 203e 9336 463e d86c e5b9
00000110: af52 e43b 6ecf 763d 7234 043e ec1a 363d
00000120: c359 85bd 08e7 413e f124 513e d9df b63e
00000130: fb39 073e aa07 0b3f 30c1 0d3e f073 b23d
00000140: 8b73 883e a200 f33c 8135 093d 8433 8e3d
00000150: 50c2 443e ac3a f73d a694 853e 08d5 1539
00000160: a6f6 45bc ef8a 653e 5dc6 853d 9fb7 833e
00000170: 23d7 4b3d eb5b f63c 968b e63c 1f24 3f3d
00000180: 7426 0c3d 3519 13bd 769c 733d 6ed4 8b3e
0.021223068 0.0056668753 0.040985182 0.21658745 0.17688264 0.055936765 0.11705774 -0.02245388
0.10984306 0.2560098 0.2148486 0.2627802 0.31017038 0.16447967 0.027608518 0.06016652
0.0033316747 0.10542662 0.13755709 -0.010390419 0.03223464 0.39641604 0.26118088 -0.0035291435
-0.003163265 -0.003564875 -0.0013584718 0.34537464 0.36849838 0.1019599 0.19981189 -0.0060053803
0.17923129 0.2347786 0.015255921 0.20252262 0.25392458 0.056879517 0.18366626 -0.00022393286
-0.102969185 0.009508715 -0.058091365 -0.06803151 -0.061931174 -0.05935486 -0.034685064 -0.11775541
-0.08885227 -0.094108514 -0.24344626 -0.24770641 -0.07806196 -0.0006072637 -0.2186717 -0.1243079
-0.00057544594 -0.010868815 -0.082451224 -0.039465584 0.06627732 -0.00035251 0.18115535 0.09503053
0.3549736 0.15639237 0.19356756 -0.0004375938 0.0069678645 0.060256414 0.12910631 0.04445927
-0.06511261 0.18935788 0.20424248 0.35717657 0.13205712 0.5430857 0.13843226 0.087135196
0.26650652 0.029663388 0.03349829 0.069434196 0.1921475 0.12071738 0.26089972 0.00014289108
-0.012082731 0.2241628 0.065319754 0.2572603 0.049765717 0.030073127 0.028142732 0.046665307
0.03421636 -0.03591271 0.059475385 0.27310508
