permutation-equivariance/models/one_hidden_layer/fixed_last/best_training_1.pt (torch, 1259 bytes, 1 tensors)

linear_layer_1.weight f4 [10, 10]
00000000: 214b fe3b 195f 50ba ca59 1c3d f3f8 7a3e
00000010: ab8f 463e 028d 683d d240 c43d 7a68 b9ba
00000020: 1d50 213e a465 9a3e d9a8 863e a9e6 9c3e
00000030: 47e6 b43e 252c 3a3e 732d 423d 7a62 cf3d
00000040: 050a acbb 999e 8e3e 81cd 723e 1c00 58bc
00000050: 0a4b 9bbe 309a 3ebb ea79 0b3b 30f7 24be
00000060: b775 9cbe 6dbe b2bd ee7a 11be ecc1 51be
00000070: 9b83 bcbd 866f 46bd 3338 7e3e 44ca 83ba
00000080: 9eaa 633e 4965 843e 5d61 963c 4bf4 8b3e
00000090: 3573 813e f7c2 6f3e 2534 943e 2636 79ba
000000a0: eb11 3fbb dd87 ce3e a678 a63c dd8c 1dba
000000b0: ef81 5a3d 7729 703d 808b 5f3d 0b40 853d
000000c0: e236 203d b0d5 f3ba 634d b2ba b984 d2bb
000000d0: d852 563d d999 263e efb8 843b f8f4 273d
000000e0: a9ac 193e 14c7 c63e 60c6 e23d cc18 b03d
000000f0: 32b4 8a3d 0d4b c8bc 5dda 5c3e b5d1 c03d
00000100: 0429 cd3e dc28 5d3e da49 413e 2616 b03c
00000110: b8a8 873c 28b5 823d a63a 91be 96b8 4ebe
00000120: aab1 82be 5633 adbc 80a7 27be a9ab 963c
00000130: d4fd babd bf95 ecbd 0fc4 81be cd74 bfbd
00000140: 7c43 a03e 469c 683c 21c4 a53c 9b4d 4c3d
00000150: ebb7 743e ddf1 203e 12d5 823e 0058 3c3c
00000160: 210e 4bbc cbd1 803e 2acb c83d e0ea 993e
00000170: 4d0b 963d 2ee2 a73a 9e1d 193d df4d b43d
00000180: 5b94 95ba efb5 9ebb f058 1d3e c239 9c3e
0.007760421 -0.0007948741 0.038171567 0.24509029 0.19390742 0.0567751 0.09582676 -0.0014145516
0.15753217 0.3015567 0.26300696 0.3064473 0.35331938 0.18180902 0.047406625 0.10126205
-0.005250218 0.27855375 0.23711206 -0.01318362 -0.30330688 -0.0029083602 0.0021282383 -0.1610992
-0.3055856 -0.08727727 -0.1420705 -0.20484132 -0.09204789 -0.0484462 0.24826126 -0.0010054787
0.22233054 0.25858524 0.018356973 0.27334818 0.25283208 0.23414217 0.28946033 -0.0009506665
-0.0029154967 0.4033803 0.020321202 -0.0006010065 0.05334657 0.058633294 0.054576397 0.06506356
0.03911484 -0.0018603113 -0.0013603385 -0.006424513 0.0523251 0.16269626 0.004050366 0.041005105
0.15007271 0.3882376 0.11072993 0.0859848 0.06772651 -0.02444985 0.21567674 0.094149984
0.40070355 0.21597618 0.18875828 0.021494936 0.016559944 0.06382209 -0.28365058 -0.20187601
-0.25526172 -0.021142643 -0.1637249 0.0183924 -0.09130445 -0.11551999 -0.25344893 -0.0934845
0.31301486 0.014197415 0.020235123 0.049878698 0.23898284 0.15717264 0.25553185 0.01149559
-0.012393505 0.2516006 0.098043755 0.30062008 0.07326374 0.0012808496 0.03738176 0.08803915
-0.0011412011 -0.0048434655 0.15365958 0.30512816
