permutation-equivariance/models/one_hidden_layer/fixed_last/nn_classifcation_best_training_100.pt (torch, 1259 bytes, 1 tensors)

linear_layer_1.weight f4 [10, 10]
0	0x3b60526f	0.0034228822
1	0x3db647ff	0.08900451
2	0xbe61c40b	-0.2204744
3	0xbe6fae55	-0.23406346
4	0xbd49f660	-0.049307227
5	0xbdfcf74a	-0.12351854
6	0x3e38666b	0.1800782
7	0xbe7ca0cf	-0.24670719
8	0x3e291a0e	0.16513845
9	0xbe886b86	-0.26644534
10	0xbe83bffb	-0.25732407
11	0xbe48d4de	-0.19612452
12	0xbe062587	-0.13100253
13	0x3e8f41a2	0.2797976
14	0x3e11a356	0.14222464
15	0x3e845c33	0.25851592
16	0xbe06b28d	-0.13154049
17	0x3d919d5d	0.07110093
18	0x3e85b91d	0.26117793
19	0x3e8aa700	0.27080536
20	0x3eaac9a2	0.3335696
21	0xbce1d1af	-0.027565805
22	0xbdb12e1f	-0.08651375
23	0x3e5fbc74	0.21849233
24	0x3d089f5a	0.033355094
25	0x3c5c0b7a	0.013430471
26	0x3d5cf7cc	0.053947255
27	0x3e8626bf	0.26201436
28	0x3e042658	0.12905252
29	0x3e3aa188	0.18225682
30	0xbd159b88	-0.03652528
31	0xbdecc81c	-0.11561605
32	0xbe7db6ea	-0.24776807
33	0xbe159c87	-0.14610492
34	0xbe9a2d71	-0.30112794
35	0x3e8bd4aa	0.27310687
36	0x3db95b7c	0.090506524
37	0xbea61821	-0.32440284
38	0x3e658b90	0.2241652
39	0x3d1ca70c	0.038245246
40	0xbe13a4b9	-0.14418305
41	0xbe1887e7	-0.14895593
42	0xbca354e2	-0.019937936
43	0x3ddd8ee9	0.108182736
44	0x3c4b8b27	0.012423313
45	0x3aa86349	0.0012846972
46	0xbcf3dc01	-0.029767992
47	0xbe403f24	-0.18774086
48	0xbe0faceb	-0.14030807
49	0x3e465bbf	0.19370936
50	0xbda24016	-0.0792238
51	0x3d12c332	0.035830684
52	0xbd9196e4	-0.07108858
53	0x3e15644e	0.14589044
54	0xbc2c7862	-0.010526748
55	0xbe4a83db	-0.19776861
56	0xbe6c447e	-0.23073003
57	0xbc985a4f	-0.01859775
58	0x3e289d40	0.16466236
59	0x3dd54daf	0.104152076
60	0x3d2f0c25	0.04273619
61	0x3e96af32	0.29430538
62	0x3c011274	0.007877935
63	0xbdbc3cd2	-0.09191288
64	0x3dc52d34	0.096277624
65	0xbe1bef79	-0.1522807
66	0xbe2433bc	-0.1603536
67	0xbdd06418	-0.10175341
68	0xbe8a4e2a	-0.2701276
69	0x3e67de5f	0.22643422
70	0x3dd0d743	0.10197308
71	0x3d5f4f74	0.05451913
72	0x3d895e0d	0.06707392
73	0xbe07dae7	-0.13267098
74	0x3cc2811c	0.023743205
75	0x3e3bb2ed	0.18329974
76	0xbeafb007	-0.34313986
77	0x3e5cd15d	0.21564241
78	0x3ddbb644	0.10728124
79	0xbdf55a66	-0.11980133
80	0xbdb28461	-0.087166555
81	0x3e19f9fd	0.15036769
82	0xbe34ad16	-0.17644152
83	0x3dc17b5d	0.09447358
84	0xbe103220	-0.14081621
85	0xbea80af7	-0.32820866
86	0xbd38beee	-0.04510396
87	0x3e28e20a	0.16492477
88	0x3e7c574c	0.24642676
89	0xbdb417b1	-0.08793581
90	0x3d91e566	0.071238324
91	0xbc84e21a	-0.016221095
92	0x3e5062f7	0.20350252
93	0xbe009248	-0.12555802
94	0x3e8ac552	0.27103668
95	0x3d6ce99c	0.057839975
96	0x3e91d6a4	0.2848407
97	0xbdc2c365	-0.09509925
98	0x3d343eb9	0.04400513
99	0x3e8282b2	0.25490338
