permutation-equivariance/models/one_hidden_layer/fixed_last/nn_classification_best_training_10.pt (torch, 1959 bytes, 2 tensors)

linear_layer_1.weight f4 [10, 10]
0.21578127 0.21995352 -0.2517499 0.18701458 -0.16539975 0.033600006 0.11782261 0.07974884
0.15061837 -0.029082289 0.2782629 -0.14083341 -0.13453563 0.2102801 -0.23547132 -0.08782088
0.102598555 0.27012035 0.14802107 0.073060885 0.08725527 -0.12911506 -0.012596322 -0.1472453
-0.250648 -0.2949609 0.10076617 0.22455415 0.08470938 -0.29226506 0.24187736 -0.012473391
0.15351368 0.09790709 0.05761299 -0.2368671 -0.17369995 0.06488593 0.181526 0.18983057
-0.27969465 -0.07868347 0.028068043 -0.25960502 0.15247214 -0.09817135 -0.21206443 0.24775177
0.15229689 -0.30987024 0.019657515 0.06689576 0.091787994 -0.2446998 0.20830922 -0.17215699
-0.0020655852 -0.28432944 -0.12608631 -0.092666715 0.107800856 -0.102333285 -0.30901703 0.1686341
-0.24115849 -0.20329174 -0.06404215 0.028382476 -0.25102958 0.2442744 0.20062006 0.1630819
0.1616192 0.12165213 0.041128118 -0.027905002 0.28785813 0.10457454 0.1432777 -0.04294019
-0.2325857 -0.08597805 0.2033694 0.01662258 -0.07899056 -0.09815699 -0.16634105 0.23374097
-0.2424236 0.08209576 -0.23321016 -0.23590744 0.2223112 0.19792923 0.12672885 -0.11615744
0.002022384 0.008092024 0.2941864 -0.119562484
00000000: c4f5 5c3e 7f3b 613e 5de5 80be c080 3f3e
00000010: 8d5e 29be 29a0 093d fb4c f13d 5c53 a33d
00000020: b43b 1a3e fb3d eebc 7a78 8e3e a236 10be
00000030: b5c3 09be ab53 573e 651f 71be 6fdb b3bd
00000040: 311f d23d 374d 8a3e d692 173e f2a0 953d
00000050: e4b2 b23d bd36 04be ce60 4ebc 79c7 16be
00000060: ef54 80be 1d05 97be 7e5e ce3d 86f1 653e
00000070: 1d7c ad3d c4a3 95be b3ae 773e 325d 4cbc
00000080: b132 1d3e 8383 c83d 99fb 6b3d 4a8d 72be
00000090: 66de 31be eae2 843d f4e1 393e f262 423e
000000a0: 2334 8fbe cd24 a1bd f4ee e53c f3ea 84be
000000b0: a821 1c3e 100e c9bd 6b27 59be a4b2 7d3e
000000c0: b7f3 1b3e 50a7 9ebe cc08 a13c a500 893d
000000d0: 58fb bb3d 9692 7abe 034f 553e ec49 30be
000000e0: c55e 07bb a193 91be c51c 01be 0cc8 bdbd
000000f0: b2c6 dc3d 1d94 d1bd 7b37 9ebe 6bae 2c3e
00000100: 40f2 76be b62b 50be 8828 83bd 5e82 e83c
00000110: f386 80be 1123 7a3e 586f 4d3e f1fe 263e
00000120: 817f 253e c024 f93d f575 283d 0899 e4bc
00000130: 2462 933e 2d2b d63d 64b7 123e 0de2 2fbd
00000140: f22a 6ebe 4315 b0bd 1140 503e 142c 883c
00000150: cdc5 a1bd 8806 c9bd 4f55 2abe cb59 6f3e
00000160: e43d 78be d221 a83d a5ce 6ebe b891 71be
00000170: 8ca5 633e f6ad 4a3e 35c5 013e f4e3 edbd
00000180: f989 043b 6994 043c 9a9f 963e 2ddd f4bd

linear_layer_2.weight f4 [10, 10]
-0.16663378 -0.2414891 0.10019087 -0.026674364 0.020402966 0.0846901 0.086602 0.08882038
-0.26565453 0.035198234 0.23110618 0.15386295 -0.007810532 0.22020184 0.09157173 0.1978435
-0.10011048 0.25133508 -0.22511102 0.017913891 -0.13013881 -0.18418284 -0.12505788 -0.1796464
0.18974493 0.11300048 0.17710944 -0.3119704 -0.12449883 -0.1128687 -0.14926831 -0.28648555
-0.14555223 0.13647535 0.288719 -0.084002115 0.1965829 0.028049529 0.025015097 0.116849944
-0.06318057 0.17984547 0.14631292 -0.25392595 0.25526044 0.11659537 -0.1586932 -0.26215
-0.1305212 0.29321018 0.09561727 0.17747214 0.23119798 -0.14824975 0.1983107 -0.06761498
0.084843956 0.079628885 0.16932383 -0.032499574 0.059643436 0.2992361 -0.14354494 0.2798051
0.2018561 -0.1120134 -0.23595189 0.15492153 -0.039485957 0.14520077 0.21395184 -0.25244594
0.14206263 -0.2677064 -0.014408614 0.032217763 -0.23823786 -0.13454409 -0.029562322 0.20667903
-0.043027423 -0.05399041 -0.08572419 0.034251112 -0.31759977 -0.10312469 0.25324517 0.19211309
-0.06856629 0.28261822 -0.2256532 0.060803257 0.19323526 0.25294355 0.14328454 -0.103138104
0.16787879 -0.25231102 0.035413668 -0.13860902
00000000: 0ca2 2abe eb48 77be df30 cd3d 3284 dabc
00000010: 1f24 a73c 0172 ad3d 645c b13d 76e7 b53d
00000020: df03 88be 062c 103d 19a7 6c3e 408e 1d3e
00000030: 7eef ffbb 977c 613e f689 bb3d 7d97 4a3e
00000040: b906 cdbd feae 803e 8183 66be 27c0 923c
00000050: 1c43 05be 6d9a 3cbe 2c0f 00be 3af5 37be
00000060: 7f4c 423e cc6c e73d 2d5c 353e 96ba 9fbe
00000070: 3ef9 febd b427 e7bd cbd9 18be 3cae 92be
00000080: a50b 15be 32c0 0b3e fad2 933e 4d09 acbd
00000090: 074d 493e 20c8 e53c 76ec cc3c 064f ef3d
000000a0: d164 81bd 6929 383e 0ed3 153e 9502 82be
000000b0: 7fb1 823e 8ec9 ee3d 7880 22be 8638 86be
000000c0: 59a7 05be a51f 963e fdd2 c33d 42bb 353e
000000d0: 2abf 6c3e c8ce 17be f611 4b3e b979 8abd
000000e0: abc2 ad3d 7814 a33d 3a63 2d3e 461e 05bd
000000f0: ad4c 743d 7935 993e 72fd 12be 9d42 8f3e
00000100: 5eb3 4e3e 4867 e5bd 5f9d 71be c0a3 1e3e
00000110: 07bc 21bd 83af 143e 3116 5b3e 9840 81be
00000120: de78 113e d010 89be 1b12 6cbc c6f6 033d
00000130: a0f4 73be edc5 09be af2c f2bc aba3 533e
00000140: 863d 30bd 0c25 5dbd 2a90 afbd e54a 0c3d
00000150: 709c a2be 0a33 d3bd 5aa9 813e 4bb9 443e
00000160: 7c6c 8cbd 56b3 903e a211 67be d60c 793d
00000170: 77df 453e d181 813e 2fb9 123e 123a d3bd
00000180: 6be8 2b3e e92e 81be ec0d 113d 86ef 0dbe
