permutation-equivariance/models/one_hidden_layer/fixed_last/nn_classification_best_training_0.pt (torch, 1959 bytes, 2 tensors)

linear_layer_1.weight f4 [10, 10]
000000 c4 f5 5c 3e 7f 3b 61 3e 5d e5 80 be c0 80 3f 3e
       0.21578127 0.21995352 -0.2517499 0.18701458
000010 8d 5e 29 be 29 a0 09 3d fb 4c f1 3d 5c 53 a3 3d
       -0.16539975 0.033600006 0.11782261 0.07974884
000020 b4 3b 1a 3e fb 3d ee bc 7a 78 8e 3e a2 36 10 be
       0.15061837 -0.029082289 0.2782629 -0.14083341
000030 b5 c3 09 be ab 53 57 3e 65 1f 71 be 6f db b3 bd
       -0.13453563 0.2102801 -0.23547132 -0.08782088
000040 31 1f d2 3d 37 4d 8a 3e d6 92 17 3e f2 a0 95 3d
       0.102598555 0.27012035 0.14802107 0.073060885
000050 e4 b2 b2 3d bd 36 04 be ce 60 4e bc 79 c7 16 be
       0.08725527 -0.12911506 -0.012596322 -0.1472453
000060 ef 54 80 be 1d 05 97 be 7e 5e ce 3d 86 f1 65 3e
       -0.250648 -0.2949609 0.10076617 0.22455415
000070 1d 7c ad 3d c4 a3 95 be b3 ae 77 3e 32 5d 4c bc
       0.08470938 -0.29226506 0.24187736 -0.012473391
000080 b1 32 1d 3e 83 83 c8 3d 99 fb 6b 3d 4a 8d 72 be
       0.15351368 0.09790709 0.05761299 -0.2368671
000090 66 de 31 be ea e2 84 3d f4 e1 39 3e f2 62 42 3e
       -0.17369995 0.06488593 0.181526 0.18983057
0000a0 23 34 8f be cd 24 a1 bd f4 ee e5 3c f3 ea 84 be
       -0.27969465 -0.07868347 0.028068043 -0.25960502
0000b0 a8 21 1c 3e 10 0e c9 bd 6b 27 59 be a4 b2 7d 3e
       0.15247214 -0.09817135 -0.21206443 0.24775177
0000c0 b7 f3 1b 3e 50 a7 9e be cc 08 a1 3c a5 00 89 3d
       0.15229689 -0.30987024 0.019657515 0.06689576
0000d0 58 fb bb 3d 96 92 7a be 03 4f 55 3e ec 49 30 be
       0.091787994 -0.2446998 0.20830922 -0.17215699
0000e0 c5 5e 07 bb a1 93 91 be c5 1c 01 be 0c c8 bd bd
       -0.0020655852 -0.28432944 -0.12608631 -0.092666715
0000f0 b2 c6 dc 3d 1d 94 d1 bd 7b 37 9e be 6b ae 2c 3e
       0.107800856 -0.102333285 -0.30901703 0.1686341
000100 40 f2 76 be b6 2b 50 be 88 28 83 bd 5e 82 e8 3c
       -0.24115849 -0.20329174 -0.06404215 0.028382476
000110 f3 86 80 be 11 23 7a 3e 58 6f 4d 3e f1 fe 26 3e
       -0.25102958 0.2442744 0.20062006 0.1630819
000120 81 7f 25 3e c0 24 f9 3d f5 75 28 3d 08 99 e4 bc
       0.1616192 0.12165213 0.041128118 -0.027905002
000130 24 62 93 3e 2d 2b d6 3d 64 b7 12 3e 0d e2 2f bd
       0.28785813 0.10457454 0.1432777 -0.04294019
000140 f2 2a 6e be 43 15 b0 bd 11 40 50 3e 14 2c 88 3c
       -0.2325857 -0.08597805 0.2033694 0.01662258
000150 cd c5 a1 bd 88 06 c9 bd 4f 55 2a be cb 59 6f 3e
       -0.07899056 -0.09815699 -0.16634105 0.23374097
000160 e4 3d 78 be d2 21 a8 3d a5 ce 6e be b8 91 71 be
       -0.2424236 0.08209576 -0.23321016 -0.23590744
000170 8c a5 63 3e f6 ad 4a 3e 35 c5 01 3e f4 e3 ed bd
       0.2223112 0.19792923 0.12672885 -0.11615744
000180 f9 89 04 3b 69 94 04 3c 9a 9f 96 3e 2d dd f4 bd
       0.002022384 0.008092024 0.2941864 -0.119562484

linear_layer_2.weight f4 [10, 10]
000000 64 83 ac 3f 86 57 8d 3f cc 38 3e 3f 7d 5f fd 3b
       1.3477597 1.1042335 0.74305415 0.0077323304
000010 fc ce 9c bf 4e 92 91 bf 67 48 11 3d e9 81 5a 3f
       -1.2250667 -1.1372774 0.03546944 0.8535448
000020 53 28 a4 3f 27 57 ac 3f 13 e6 be 3f cb 4f a7 3f
       1.2824806 1.3464097 1.4913963 1.3071226
000030 14 ad 56 3f d1 05 ac 3d 22 57 9d bf de bf 89 bf
       0.83857846 0.08399547 -1.2292216 -1.0761678
000040 ef 15 b3 bd 7b 61 51 3f d4 3e 86 3f ea 92 a7 3f
       -0.08744418 0.8178937 1.0487924 1.309171
000050 c6 36 98 3f 40 c6 7f 3f e7 3b 8a 3f 03 97 a0 be
       1.1891716 0.9991188 1.0799531 -0.31365213
000060 3d 14 a4 bf 27 84 a1 bf 9c 1e c9 be 14 0e ed 3e
       -1.2818676 -1.2618455 -0.39281166 0.46299803
000070 4a 90 4e 3f 1a e5 88 3f 5c d9 60 3f c0 ac 14 3f
       0.8068892 1.0694916 0.87831664 0.58076096
000080 b4 02 7d 3e 6c 5b b8 3e 3a 9b dd bf 59 67 c7 bf
       0.24708062 0.3600725 -1.7312996 -1.5578414
000090 24 d9 f7 be f5 bb 3d 3e 34 ba 34 3f 60 cc 41 3f
       -0.48407853 0.18528731 0.70596623 0.75702477
0000a0 1a 86 67 3f b5 b9 1a 3f 94 32 d1 3e ec 98 92 be
       0.90439 0.60439616 0.408589 -0.28632295
0000b0 5f b3 9f be d0 6a 68 c0 fd de d3 be 13 e8 f0 3d
       -0.31191537 -3.6315193 -0.41381064 0.11763015
0000c0 0d 61 07 3f 8b 8e 48 3f 49 3a cf 3f b5 ab c2 3f
       0.5288246 0.78342503 1.6189662 1.5208651
0000d0 7e c6 8f 3f 6a 49 cd 3e 87 45 30 c0 80 06 b7 bf
       1.123245 0.40095073 -2.7542436 -1.4298859
0000e0 9b a6 da 3e 02 54 ab 3f 50 29 c2 3f 82 e4 c1 3f
       0.42705235 1.3385012 1.5168858 1.514786
0000f0 3e ff 3b 40 4f f7 2b 40 9a 9f 08 40 70 2f 82 3f
       2.9374537 2.6869695 2.1347413 1.0170727
000100 37 0c 00 3f 1f ca e6 3f 68 96 9b c0 38 6e 36 40
       0.5001864 1.8030432 -4.86211 2.8504772
000110 69 54 35 40 26 be 33 40 b3 88 1e 40 dd cf 15 40
       2.833277 2.8084807 2.4770935 2.340812
000120 0f 9f d8 3f ab d8 5c 3f a1 bf 6a be b6 45 90 3d
       1.6923541 0.8626811 -0.22924663 0.07044546
000130 10 10 bc 3f 38 00 49 bf d6 aa 1b 40 8e 60 18 40
       1.4692402 -0.7851596 2.432302 2.3808932
000140 23 8f ee 3f ea cb d6 3f e3 74 94 3f db 93 cf 3e
       1.8637432 1.678098 1.1598171 0.40542492
000150 f5 c0 5e bf 1a 36 24 bf 73 64 e7 3e 41 35 a4 3f
       -0.8701318 -0.6414505 0.45193824 1.2828752
000160 e4 d4 3f 3f 56 c5 ff 3f 8a f4 bd 3f 1d ae ae 3f
       0.7493422 1.9982097 1.4840252 1.3646885
000170 88 86 82 3f d1 9b a3 3d 04 8d 85 bf 16 e5 8e bf
       1.0197306 0.07988704 -1.043366 -1.1163661
000180 45 2a 01 bc 48 e0 83 3f bd 0f a1 3f a0 1e b9 3f
       -0.007883613 1.030282 1.2582928 1.4462471
