permutation-equivariance/models/one_hidden_layer/fixed_last/nn_classification_best_training_10.pt (torch, 1959 bytes, 2 tensors)

linear_layer_1.weight f4 [10, 10]
00000000: 0d7a 4c3d 0a24 9d3e be4b cfbd 69ca b83a
00000010: bd2a 9fbe 5af5 69be 1635 27be b68d 9ebd
00000020: 4988 2bbe c9b5 003d 0577 a13e 708e 8d3e
00000030: 410c ae3c 01ff 00be d2b9 54be 4a34 203d
00000040: 627b 103d 5d07 0e3e 3c7e 41bd 4470 5cbc
00000050: e8dd 4a3e a471 423e 08ca 8e3b d929 873e
00000060: b05f 2c3a 6fa8 8ebd f9e4 97be 35ca a0be
00000070: 0fa7 8f3e 3dc5 82be 2d5a 433e 534c 203d
00000080: b950 7c3e 38c4 26be 75bc 9ebe 4d24 993e
00000090: d4bf 92be b069 8a3e bc27 22be 566c 6e3e
000000a0: 08b4 3ebd 71e2 9bbc afc5 2e3e a0a5 243e
000000b0: 53d4 2fbe 2129 913e 7e5f 943e 0cc5 71be
000000c0: ee8a 153e 19f0 91bd 4aa1 20be aa02 c73c
000000d0: 6aac a9bc 3ff5 96be 745a 863e 2281 7f3e
000000e0: f791 95bd 7c6c debd c4fb f6bc d2ea f23d
000000f0: ee6d 8cbe 2cdb 0dbe a27b 02be ce2c 143e
00000100: 749f 4a3e 3587 07bd e412 80be f31c 18be
00000110: a0fb a5bd 1f76 433e 248e c7bd 41fd 83bd
00000120: 49f7 e43d 434d 503e 0b11 4fbe 95f0 cd3d
00000130: 1ab7 2dbe 91af 48be 84bb fabc 14a4 eabd
00000140: 852f 173e 7ac0 06be ceef 893e b5ba 673e
00000150: 63bf 433d 97e2 58be dc4c 9dbd db41 85be
00000160: 9b2d 8f3e 2307 be3d 8b34 873e 9a96 b13d
00000170: 61e5 20be 134e 8d3e 051b f2bd c68e 91be
00000180: d071 36bd c760 6dbe 5ad1 19be 5de6 ddbd
0.049921084 0.30691558 -0.101218686 0.0014098409 -0.31087294 -0.228475 -0.16328844 -0.07741873
-0.16751207 0.031423364 0.31536117 0.27647734 0.021246077 -0.12597276 -0.2077401 0.039112367
0.035273917 0.13869996 -0.047239527 -0.013454501 0.19811213 0.18988663 0.00435758 0.26399115
0.0006575538 -0.0696572 -0.2966688 -0.31404272 0.28057143 -0.25541106 0.19077368 0.03913529
0.24640168 -0.16285789 -0.31003156 0.29910508 -0.28661978 0.27033758 -0.1583547 0.23283514
-0.04655841 -0.019028874 0.17067598 0.16078806 -0.17170839 0.2835169 0.28979105 -0.23610324
0.14603779 -0.07125873 -0.15686527 0.024293263 -0.020712096 -0.29483983 0.26240885 0.24951604
-0.07303231 -0.108605355 -0.030149348 0.11861195 -0.2742762 -0.13853139 -0.12742475 0.14470217
0.19787389 -0.033087928 -0.25014412 -0.14854793 -0.08104634 0.19088028 -0.09743908 -0.06444789
0.111799784 0.20341973 -0.20221345 0.10055653 -0.16964379 -0.19598223 -0.030606993 -0.11457077
0.14764221 -0.13159361 0.2694077 0.22629817 0.047789942 -0.21180187 -0.076806754 -0.26026806
0.27964482 0.09278705 0.26407275 0.08671303 -0.15712501 0.27598628 -0.1182156 -0.2842924
-0.044542134 -0.23181449 -0.15021268 -0.10834954

linear_layer_2.weight f4 [10, 10]
00000000: ad9b 173e 7ab8 3d3e 6dfa dabd a697 8f3c
00000010: 391c 483e d95c 8abe b78f a2be 5e31 27bd
00000020: 7a40 923e 877c 13be ad9c 20be d885 4abe
00000030: 9c9e f53d 8b36 513e e486 913e 64a7 92be
00000040: 0daf 933d b880 8f3e ff8d 9b3e f614 11be
00000050: a6c9 82bc 8ab7 433d 6660 663e 4eea 763e
00000060: c023 44be 4dfd d7bd 52dd e93d 48ae 18be
00000070: 0a35 f63d d2fb 8f3d 6d1d a43e a94b a63e
00000080: 8ccf 25be 4ba8 183e 74cc dd3d b847 9abe
00000090: b4e3 613e 8043 cdbd 21ec 85be 4d37 983e
000000a0: b56e 403d c417 313e 1fe5 8a3d 7710 ccba
000000b0: b96d 523e 672f 553e 1f04 563e c892 853d
000000c0: d304 943e 2bed d03d f987 0b3e 22ba 62be
000000d0: 2733 27bd ae62 46be af16 5abd 644d a3be
000000e0: 0c09 dd3d bebc 26bd 27c9 9d3e c4b0 c63d
000000f0: a801 02be 2fa3 653e ba3a 2e3e 25d2 633e
00000100: 44b4 d2bd f377 99bc e753 783e ed82 9d3e
00000110: 791f 123e cfc2 6c3e 4cd3 bc3d d548 ab3c
00000120: 74f8 35bd 5092 703d dd0f 0dbe b03d 823e
00000130: 6cf2 cbbd d0c9 a2be 7c36 e2bb c273 673e
00000140: 6b0d 423e 74c6 163e 1db9 8bbe fd87 713e
00000150: 1dec a2be 4ceb c33d fa95 e7bc 6f4e 2d3e
00000160: dfb6 513e 7634 48bd 6e37 e4ba b023 9b3e
00000170: 2df8 7a3e ce34 94be f46d 1f3e 39a2 3bbe
00000180: 0bc6 29be aaed 683e 32ab e6bd 8a83 443e
0.1480548 0.18527403 -0.10692296 0.017528366 0.19542016 -0.27023962 -0.3175027 -0.040818565
0.28564817 -0.14402972 -0.15684767 -0.1977762 0.11993143 0.20430963 0.28423226 -0.28643334
0.07211123 0.28027892 0.30381772 -0.14168152 -0.015965294 0.04778246 0.2249771 0.24112818
-0.19154263 -0.1054636 0.114191666 -0.14910233 0.12021835 0.07030453 0.320537 0.324796
-0.16192454 0.14907949 0.10830012 -0.30132842 0.22059518 -0.1002264 -0.26156715 0.2972969
0.04698058 0.17294222 0.06781983 -0.0015568872 0.20549668 0.20818864 0.2090001 0.06522137
0.2890993 0.10201486 0.13626088 -0.22141317 -0.040820267 -0.19373581 -0.05324429 -0.31894982
0.10792741 -0.040707342 0.3081753 0.09701684 -0.12695944 0.22425531 0.1701459 0.22248133
-0.10288289 -0.018733954 0.24250756 0.3076395 0.14269818 0.23121189 0.09219989 0.020908752
-0.044426396 0.058733284 -0.13775583 0.2543769 -0.09958348 -0.31794596 -0.0069034677 0.22602752
0.18950431 0.14724141 -0.27289668 0.23587032 -0.31820765 0.09566364 -0.028269757 0.16924451
0.20479916 -0.048878156 -0.0017411539 0.30300665 0.24508734 -0.28946537 0.15569288 -0.18323602
-0.16579454 0.22746912 -0.11263122 0.19190803
