permutation-equivariance/models/one_hidden_layer/fixed_last/nn_regression_untrained.pt (torch, 1259 bytes, 1 tensors)

linear_layer_1.weight f4 [10, 10]
00000000: 975a 7b3e 2b43 09be 9d83 823e 2618 3f3e
00000010: be47 273e e33e 8a3d c131 413e cbb4 43bd
00000020: 71d4 223e 4ec6 60bd 3bcc 92be 9ad2 2b3e
00000030: 469f 673d 28da 14bd 67a7 3e3e 8139 e03d
00000040: 1e46 1dbe 837a 5dbe 902a 603e 6179 69be
00000050: bf04 d8bd 9319 a0be eccf 6a3e 9a1a 6bbe
00000060: 49d4 d13d a9c6 26be 01bb 573d 7266 9a3e
00000070: cb22 90be cfa6 2fbe 49e0 8c3e 5262 7abe
00000080: b22a 99be e5b3 b13c 3e77 4f3c 68b6 36be
00000090: 3a94 573d a344 62be 1d31 ae3d 259d 533e
000000a0: 0305 a6ba c311 48be 37cc b3bd 8213 d83d
000000b0: afed 95be 9211 7b3e f7fe 25be d962 0f3d
000000c0: 8ba5 24be 6c3a 3ebe 0e0e d8bc 276a b4bd
000000d0: e081 993e 67fc dd3d 0e56 dbbd 22b4 213e
000000e0: 6012 03bd c8b1 433e d2c0 91bd b4aa 07be
000000f0: bbf1 9bbe 1ca5 d43d 3436 c63d 750a b8bd
00000100: 980e 7bbe 1ee9 44bd 867c 39bd dbba 423e
00000110: cc5a 963e 1d46 78be 3537 8ebe b461 41be
00000120: f76d 273e 6e2c 97be 5d5c 813e af50 523e
00000130: a800 23be 544a 9b3e 4c62 893e 59c3 47be
00000140: 8f97 fc3d de4c 10be fd15 293e a32e 96bd
00000150: 1d48 e73d 3bb2 42be 4445 ed3c b706 4fbe
00000160: d9d8 c03b 124a 9cbe 6a5f 2ebe dd40 2a3e
00000170: 9809 f93d 06d1 32be efd6 2abb 0fda 8cbe
00000180: 31ee 233e bcc5 903e 431c 763e 0a27 743e
0.24546276 -0.13404529 0.25491038 0.18661556 0.16335961 0.06750276 0.18866636 -0.04777984
0.15901352 -0.054876618 -0.2867144 0.16779557 0.05654838 -0.036340863 0.18618546 0.10948468
-0.15358779 -0.21628766 0.21891236 -0.22800209 -0.1054778 -0.31269512 0.22930878 -0.22959366
0.10245568 -0.1628672 0.052668575 0.30156285 -0.28151545 -0.17153476 0.27514866 -0.24451569
-0.29915386 0.021692226 0.012662707 -0.1784302 0.052631594 -0.22096495 0.08505461 0.20665415
-0.0012666289 -0.19538026 -0.08779185 0.10550596 -0.292829 0.24518421 -0.16210543 0.035006378
-0.16078775 -0.18576974 -0.02637389 -0.088093095 0.299819 0.108391576 -0.10709773 0.15791371
-0.031999946 0.19110787 -0.07116856 -0.13248712 -0.30457863 0.103830546 0.09678307 -0.089863695
-0.24517286 -0.04807388 -0.04528477 0.19016592 0.29366148 -0.24245496 -0.27776495 -0.18884927
0.16350542 -0.29526085 0.2526578 0.20538591 -0.15918219 0.30330145 0.26832807 -0.19508113
0.12333595 -0.14091823 0.16512294 -0.07333114 0.112930514 -0.19013302 0.028963692 -0.20217405
0.0058852253 -0.3052526 -0.17028585 0.16626306 0.12160033 -0.17462549 -0.0026068052 -0.27510116
0.16008832 0.2827586 0.24034218 0.23843017
