permutation-equivariance/models/one_hidden_layer/fixed_last/nn_regression_best_training_0.pt (torch, 1259 bytes, 1 tensors)

linear_layer_1.weight f4 [10, 10]
0.37294042 0.06046285 0.26857406 0.36031264 0.24287252 0.20773263 0.31610674 0.008455277
0.1488532 0.14631584 -0.016534612 0.24626139 0.07881815 0.0960186 0.22825067 0.18802162
0.032232314 -0.013191029 0.15936422 0.017017085 -0.15430966 -0.27444363 -0.031584725 -0.20016955
-0.033833053 -0.19098799 -0.05974591 -0.0011837034 -0.39348894 -0.14428852 0.33138934 0.026967384
-0.033775583 0.14931096 0.10212479 0.03429357 0.15167694 0.0021619746 0.125334 0.3221751
-0.048925407 -0.08399271 -0.12164725 -0.033099562 -0.26482472 -0.0016907582 -0.09359226 -0.060044624
-0.22656348 -0.085825965 0.06630616 0.07645456 0.31144142 0.2647259 0.0021481088 0.28717896
0.067331046 0.24079129 -0.038802557 0.04725865 6.842634e-05 0.12750322 0.05758596 0.027390009
-0.027666802 0.027701527 0.03992976 0.10328484 0.16186675 0.00311742 -0.015570107 0.025619209
0.1379627 -0.008547589 0.29581028 0.30148906 0.024247989 0.31882122 0.22126544 0.027204007
0.25330472 0.084104806 0.054392543 0.08740205 0.07822328 0.00058057345 0.0946061 -0.002492796
-0.0002701952 -0.0021006495 0.006626478 0.35372165 0.12018982 0.02744981 0.083798565 -0.04333019
0.27491677 0.33589825 0.22236003 0.43523777
00000000: 0cf2 be3e e5a7 773d 8a82 893e e67a b83e
00000010: 93b3 783e ddb7 543e bed8 a13e 0188 0a3c
00000020: f96c 183e d2d3 153e 9873 87bc f22b 7c3e
00000030: 696b a13d 66a5 c43d 8bba 693e bd88 403e
00000040: 0806 043d 301f 58bc 6030 233e 6a67 8b3c
00000050: 5a03 1ebe e083 8cbe fc5e 01bd 3ff9 4cbe
00000060: 8794 0abd 5b92 43be 21b8 74bd 7f26 9bba
00000070: 6277 c9be 5fc0 13be ddab a93e b4ea dc3c
00000080: 4458 0abd f9e4 183e cd26 d13d 6a77 0c3d
00000090: 3351 1b3e eaaf 0d3b 8e57 003e 22f4 a43e
000000a0: 0266 48bd 5f04 acbd 3222 f9bd 6893 07bd
000000b0: 1b97 87be 6e9c ddba 4cad bfbd 5af1 75bd
000000c0: 4200 68be 86c5 afbd 86cb 873d 3594 9c3d
000000d0: 4075 9f3e 278a 873e 49c7 0c3b 1f09 933e
000000e0: dce4 893d fe91 763e 6eef 1ebd 4992 413d
000000f0: 1d80 8f38 3490 023e 41df 6b3d 0361 e03c
00000100: 7da5 e2bc 50ee e23c 638d 233d 0187 d33d
00000110: 66c0 253e a14d 4c3b c319 7fbc 60df d13c
00000120: 1846 0d3e 300b 0cbc 7274 973e c65c 9a3e
00000130: b8a3 c63c 893c a33e 6893 623e f0da de3c
00000140: 28b1 813e 243f ac3d b7ca 5e3d d9ff b23d
00000150: 8733 a03d a031 183a d8c0 c13d 2d5e 23bb
00000160: fca8 8db9 0dab 09bb ed22 d93b 011b b53e
00000170: 1526 f63d 6dde e03c 959e ab3d ff7a 31bd
00000180: e4c1 8c3e dbfa ab3e 59b2 633e 7cd7 de3e
