permutation-equivariance/models/one_hidden_layer/fixed_last/nn_regression_best_training_0.01.pt (torch, 1259 bytes, 1 tensors)

linear_layer_1.weight f4 [10, 10]
0.40062258 0.06851149 0.286816 0.33482534 0.2519277 0.15490703 0.33572733 0.012039054
0.17557806 0.13760743 -0.007476258 0.28214094 0.08510078 0.078448944 0.24058454 0.14533518
0.033047397 -0.0056580855 0.18114792 0.0094246585 -0.10509974 -0.08708909 -0.029423106 -0.1385884
-0.010792492 -0.1803492 -0.033728745 -0.0016576538 -0.48238987 -0.097150765 0.36680034 0.030958373
-0.013230429 0.13916881 0.102660865 0.007930607 0.17476751 0.009381638 0.14333259 0.3350673
0.10375889 0.14377709 -0.0014875177 0.18146819 -0.0023636844 0.23600753 0.04719651 0.06429125
-0.0013916097 0.033582285 0.099324554 0.08381896 0.33010036 0.24148887 0.004812162 0.2358192
0.08561014 0.24551989 -0.0068173404 0.033330943 -0.10133055 -0.0047215973 -0.032034155 -0.04870701
-0.15230536 -0.06866358 -0.043419212 -0.0034362806 -0.00057759794 -0.09937887 2.1392756e-05 0.026154961
0.16386954 -0.013862642 0.3029113 0.25682184 0.025490787 0.3281757 0.25070667 0.017936172
-0.00065670704 -0.10196227 -0.0011047375 -0.086214714 -0.013211052 -0.18479113 -0.033254627 -0.22035827
-0.067401886 -0.2715506 0.029188558 0.3627809 0.14064935 0.03076108 0.09519791 -0.046144847
0.29598472 0.33987376 0.2499812 0.42706034
00000000: 671e cd3e c14f 8c3d 8cd9 923e 3a6e ab3e
00000010: abfc 803e f39f 1e3e 74e4 ab3e 743f 453c
00000020: bcca 333e f6e8 0c3e 66fb f4bb c774 903e
00000030: 5149 ae3d d7a9 a03d cb5b 763e bfd2 143e
00000040: b55c 073d 7667 b9bb d77e 393e e269 1a3c
00000050: 883e d7bd c45b b2bd ba08 f1bc 1eea 0dbe
00000060: fed2 30bc 76ad 38be 2727 0abd a245 d9ba
00000070: cefb f6be fbf6 c6bd 41cd bb3e 6a9c fd3c
00000080: 71c4 58bc 4582 0e3e dc3f d23d 60ef 013c
00000090: 41f6 323e 71b5 193c c7c5 123e f18d ab3e
000000a0: 8a7f d43d 4d3a 133e d0f8 c2ba ccd2 393e
000000b0: 0be8 1abb f5ab 713e 2151 413d 22ab 833d
000000c0: ac66 b6ba 948d 093d ac6a cb3d 46a9 ab3d
000000d0: ea02 a93e dc48 773e 57af 9d3b 977a 713e
000000e0: 5e54 af3d 9169 7b3e ff63 dfbb 0786 083d
000000f0: 6486 cfbd a1b7 9abb 3f36 03bd 0081 47bd
00000100: f0f5 1bbe 7e9f 8cbd 58d8 31bd 3933 61bb
00000110: f169 17ba 2687 cbbd 9874 b337 ee42 d63c
00000120: 6bcd 273e 2320 63bc 3117 9b3e 277e 833e
00000130: 0ed2 d03c a506 a83e a05c 803e e1ee 923c
00000140: dd26 2cba 98d1 d0bd d7cc 90ba 5791 b0bd
00000150: 2b73 58bc e339 3dbe 0136 08bd 99a5 61be
00000160: 000a 8abd ae08 8bbe d81c ef3c 6bbe b93e
00000170: 6206 103e a9fe fb3c 1ff7 c23d 6102 3dbd
00000180: 4f8b 973e ef03 ae3e 12fb 7f3e a7a7 da3e
