permutation-equivariance/models/one_hidden_layer/fixed_last/nn_regression_best_training_0.001.pt (torch, 1259 bytes, 1 tensors)

linear_layer_1.weight f4 [10, 10]
0	0x3ec85b69	0.3913224
1	0x3d1a0e80	0.037611485
2	0x3e82b30d	0.2552723
3	0x3eb236f9	0.34807566
4	0x3e643eb8	0.2228955
5	0x3e3c3c5c	0.183824
6	0x3e95a500	0.29227448
7	0xbc856d02	-0.01628733
8	0x3e257ff5	0.16162093
9	0x3dd1dc92	0.102471486
10	0xbb8ab071	-0.0042324592
11	0x3e844c85	0.2583963
12	0x3d9b5ee5	0.07586459
13	0x3dc5d9f9	0.096607156
14	0x3e5eefc9	0.21771158
15	0x3e377122	0.1791425
16	0x3cf5b836	0.029995065
17	0xbc96ed19	-0.018423604
18	0x3e365233	0.17804794
19	0x3c79e9c6	0.01525349
20	0x3e146493	0.14491491
21	0x3dd1c94c	0.102434725
22	0x3dd40729	0.10352928
23	0x3dd131b4	0.10214558
24	0x3e098731	0.13430478
25	0x3db0d1d8	0.086337745
26	0x3e33cb15	0.17557938
27	0x3e2c829a	0.16846696
28	0xbdd911a8	-0.10599071
29	0x3e10c476	0.14137444
30	0x3eb882ea	0.3603738
31	0x3cdc8d28	0.026922777
32	0xbd02cc49	-0.031933103
33	0x3e1c4154	0.15259296
34	0x3dc74c84	0.09731391
35	0x3d117648	0.035513192
36	0x3e168225	0.14698084
37	0xb895b081	-7.13775e-05
38	0x3e067c69	0.13133396
39	0x3e9ba008	0.30395532
40	0xbd574916	-0.052559935
41	0xbe2e30d9	-0.17010821
42	0xbdfb68f0	-0.122758746
43	0xbcc35cb9	-0.023847925
44	0xbe9425b8	-0.28935027
45	0x3cc00153	0.023438131
46	0xbe1988e1	-0.14993621
47	0xbd86d32c	-0.065832466
48	0xbe39319a	-0.18085328
49	0xbe2508f8	-0.16116703
50	0x3db852ac	0.090001434
51	0x3d5fbdf3	0.05462451
52	0x3e98db86	0.29854983
53	0x3e825fbe	0.2546367
54	0xbb55b844	-0.0032611052
55	0x3e878ab7	0.2647302
56	0x3d41c270	0.04730457
57	0x3e441c87	0.19151507
58	0xbcb03b2b	-0.021512588
59	0x3cbb6d8d	0.022879386
60	0xbb1ea8a9	-0.0024209416
61	0x3e2832ec	0.16425675
62	0x3ce1a53b	0.027544608
63	0x3cde0dfc	0.027106278
64	0xbd03f7c3	-0.032218706
65	0x3cdaa0e0	0.02668804
66	0x3ce409a5	0.02783663
67	0x3dc88294	0.09790531
68	0x3e323d5f	0.17406224
69	0xbb25acf0	-0.002528008
70	0xbb508fff	-0.003182411
71	0x3c48b5d9	0.012250387
72	0x3e17bb77	0.14817606
73	0xbc648810	-0.013948455
74	0x3e902750	0.28154993
75	0x3e8b2781	0.27178577
76	0x3c839c62	0.01606578
77	0x3e8fb90e	0.28070873
78	0x3e718b5a	0.23588315
79	0x3c63e091	0.013908521
80	0xba8f4294	-0.0010929876
81	0xbde95ed6	-0.11395042
82	0xbc5ca10c	-0.013466131
83	0xbd9e5cab	-0.07732519
84	0xbccfb3d1	-0.025354298
85	0xbe467bf2	-0.19383219
86	0xbd3d3991	-0.046197478
87	0xbe915c4f	-0.28390738
88	0xbd9f7bcd	-0.07787285
89	0xbe9a4d3b	-0.30137047
90	0x3c447e27	0.011992968
91	0x3ea9ee63	0.33189687
92	0x3de7590e	0.11296283
93	0x3cb59372	0.022165034
94	0x3d91ed5b	0.0712535
95	0xbd6cea54	-0.05784066
96	0x3e814366	0.25246733
97	0x3e926544	0.28592885
98	0x3e71ae3a	0.23601618
99	0x3ec8a9a3	0.39191923
