permutation-equivariance/models/one_hidden_layer/fixed_last/untrained.pt (torch, 1259 bytes, 1 tensors)

linear_layer_1.weight f4 [10, 10]
000000 ff 53 c7 bd d5 b1 88 3e 2a d5 74 3e fa 92 b9 3d
       -0.09732818 0.26698175 0.2390944 0.09061237
000010 fb 08 71 be 97 29 88 3d 02 40 11 be 90 38 8b be
       -0.23538582 0.06648558 -0.14184573 -0.2719159
000020 f1 15 45 bd b7 a5 6d bd 9c 05 9f 3e 96 d3 58 3e
       -0.048116628 -0.058019366 0.31058967 0.21174464
000030 e7 23 b3 3d 50 0d 01 3e de 00 14 3e 2c 83 9d 3d
       0.08747082 0.12602735 0.14453456 0.07691035
000040 b5 86 7f 3e fe 52 8b 3e 25 66 b8 bd 96 ae 5e 3e
       0.2495373 0.27211756 -0.090038575 0.21746287
000050 8c 83 61 be c4 67 25 3e 1f 39 ae bd 60 f5 62 3e
       -0.22022837 0.16152865 -0.08506989 0.22163916
000060 e1 71 61 be d2 e5 9d be 07 d2 b3 bd a3 6d 20 be
       -0.22016098 -0.308394 -0.08780294 -0.15666823
000070 6a fc 20 be 43 43 28 be 77 0d 92 bd d8 83 80 3e
       -0.15721288 -0.16431908 -0.071314745 0.2510059
000080 65 a5 a0 be 7d 27 53 3e 97 a5 85 bd 0b b5 d8 3d
       -0.31376186 0.20620532 -0.065257244 0.10581406
000090 12 b6 2e 3d 42 be 4f 3e 15 f0 99 be 21 c1 86 bc
       0.042654105 0.20287421 -0.3006598 -0.016449513
0000a0 de 25 0c be bd 2f 41 3e ec 45 2d 3e 21 b8 20 be
       -0.1368632 0.18865867 0.16921204 -0.1569524
0000b0 89 85 98 3e 17 95 0c 3e df 71 70 be bf 0e 83 3e
       0.2978938 0.13728748 -0.23480938 0.25597188
0000c0 6f 23 5f be ff 9e 96 be 7b b1 2a 3e 84 c0 b3 bd
       -0.2179086 -0.2941818 0.16669266 -0.08776954
0000d0 02 45 31 3e ad 87 55 3e 6f 90 64 3e b0 b4 9f 3e
       0.1731148 0.20852537 0.22320722 0.3119254
0000e0 36 dc 4f be 4d 86 33 be 7b 80 48 3e f5 2d b2 3d
       -0.20298848 -0.175317 0.19580261 0.08700172
0000f0 26 81 80 3e 31 cb 00 be 23 bf 47 bc c0 a2 21 3e
       0.25098532 -0.12577511 -0.012191567 0.1578474
000100 9d d9 e6 3d 9b 1f 77 3e 58 a9 48 3d 0c 18 83 3d
       0.11271975 0.2413315 0.048989624 0.06401071
000110 c6 76 a6 3d b1 33 0a be 5f ee 90 b9 28 dd 74 3e
       0.08128123 -0.13496281 -0.0002764342 0.2391249
000120 46 da 83 be 47 3c 9a 3c 6f da 31 3e bc 0c 2a 3e
       -0.25752467 0.01882757 0.17368482 0.1660642
000130 e9 f2 7e 3e d6 be fa 3d 9f 9b 81 be 3b c9 2e be
       0.2489735 0.1224343 -0.25314042 -0.17068951
000140 6c 8a 96 3e c9 aa 5b bc b5 a8 2c 3e cc 89 e8 bd
       0.29402483 -0.013407418 0.16861232 -0.11354408
000150 68 7c 3e 3e 9b 05 40 be fa 6d 59 bd ea af 95 3e
       0.18602145 -0.18752138 -0.053083397 0.29235774
000160 cd a0 fb bd 16 0f 4a 3e e3 6b 2b be 4e 0d 9b 3d
       -0.1228653 0.19732317 -0.16740374 0.07570897
000170 bb b4 92 bd 19 87 99 3d 48 44 0a 3e 3b 65 7b be
       -0.07163378 0.07496471 0.1350261 -0.24550335
000180 ee e0 dd 3d 89 f9 0e 3e 85 df 3a 3e f0 8a 89 3e
       0.108339176 0.13962378 0.18249328 0.26863813
