permutation-equivariance/models/one_hidden_layer/fixed_last/untrained_nn_classification.pt (torch, 1959 bytes, 2 tensors)

linear_layer_1.weight f4 [10, 10]
0.049921084 0.30691558 -0.101218686 0.0014098409 -0.31087294 -0.228475 -0.16328844 -0.07741873
-0.16751207 0.031423364 0.31536117 0.27647734 0.021246077 -0.12597276 -0.2077401 0.039112367
0.035273917 0.13869996 -0.047239527 -0.013454501 0.19811213 0.18988663 0.00435758 0.26399115
0.0006575538 -0.0696572 -0.2966688 -0.31404272 0.28057143 -0.25541106 0.19077368 0.03913529
0.24640168 -0.16285789 -0.31003156 0.29910508 -0.28661978 0.27033758 -0.1583547 0.23283514
-0.04655841 -0.019028874 0.17067598 0.16078806 -0.17170839 0.2835169 0.28979105 -0.23610324
0.14603779 -0.07125873 -0.15686527 0.024293263 -0.020712096 -0.29483983 0.26240885 0.24951604
-0.07303231 -0.108605355 -0.030149348 0.11861195 -0.2742762 -0.13853139 -0.12742475 0.14470217
0.19787389 -0.033087928 -0.25014412 -0.14854793 -0.08104634 0.19088028 -0.09743908 -0.06444789
0.111799784 0.20341973 -0.20221345 0.10055653 -0.16964379 -0.19598223 -0.030606993 -0.11457077
0.14764221 -0.13159361 0.2694077 0.22629817 0.047789942 -0.21180187 -0.076806754 -0.26026806
0.27964482 0.09278705 0.26407275 0.08671303 -0.15712501 0.27598628 -0.1182156 -0.2842924
-0.044542134 -0.23181449 -0.15021268 -0.10834954
00000000: 0d7a 4c3d 0a24 9d3e be4b cfbd 69ca b83a
00000010: bd2a 9fbe 5af5 69be 1635 27be b68d 9ebd
00000020: 4988 2bbe c9b5 003d 0577 a13e 708e 8d3e
00000030: 410c ae3c 01ff 00be d2b9 54be 4a34 203d
00000040: 627b 103d 5d07 0e3e 3c7e 41bd 4470 5cbc
00000050: e8dd 4a3e a471 423e 08ca 8e3b d929 873e
00000060: b05f 2c3a 6fa8 8ebd f9e4 97be 35ca a0be
00000070: 0fa7 8f3e 3dc5 82be 2d5a 433e 534c 203d
00000080: b950 7c3e 38c4 26be 75bc 9ebe 4d24 993e
00000090: d4bf 92be b069 8a3e bc27 22be 566c 6e3e
000000a0: 08b4 3ebd 71e2 9bbc afc5 2e3e a0a5 243e
000000b0: 53d4 2fbe 2129 913e 7e5f 943e 0cc5 71be
000000c0: ee8a 153e 19f0 91bd 4aa1 20be aa02 c73c
000000d0: 6aac a9bc 3ff5 96be 745a 863e 2281 7f3e
000000e0: f791 95bd 7c6c debd c4fb f6bc d2ea f23d
000000f0: ee6d 8cbe 2cdb 0dbe a27b 02be ce2c 143e
00000100: 749f 4a3e 3587 07bd e412 80be f31c 18be
00000110: a0fb a5bd 1f76 433e 248e c7bd 41fd 83bd
00000120: 49f7 e43d 434d 503e 0b11 4fbe 95f0 cd3d
00000130: 1ab7 2dbe 91af 48be 84bb fabc 14a4 eabd
00000140: 852f 173e 7ac0 06be ceef 893e b5ba 673e
00000150: 63bf 433d 97e2 58be dc4c 9dbd db41 85be
00000160: 9b2d 8f3e 2307 be3d 8b34 873e 9a96 b13d
00000170: 61e5 20be 134e 8d3e 051b f2bd c68e 91be
00000180: d071 36bd c760 6dbe 5ad1 19be 5de6 ddbd

linear_layer_2.weight f4 [10, 10]
0.14279333 0.17921442 -0.11268666 0.026806125 0.20097893 -0.2636056 -0.30893436 -0.04650439
0.27968127 -0.14852248 -0.16087852 -0.20208818 0.11460654 0.21287006 0.28953543 -0.28000388
0.08031309 0.28227875 0.29709843 -0.1460132 -0.020766228 0.042387884 0.21874514 0.24886633
-0.18518166 -0.09911778 0.12210536 -0.1520638 0.1139419 0.06511905 0.31342536 0.31423768
-0.15828551 0.15561768 0.11342348 -0.29566634 0.22754553 -0.09390794 -0.26663053 0.289806
0.040992104 0.1653441 0.07884523 0.0043850616 0.21293975 0.21357252 0.21488996 0.07738428
0.2807189 0.0954662 0.13091382 -0.22590898 -0.0468255 -0.18238819 -0.04825637 -0.3126132
0.11717244 -0.04572383 0.30216366 0.09153463 -0.13092706 0.21938267 0.1649942 0.23246537
-0.095577665 -0.012264058 0.24653475 0.3027132 0.13826713 0.22636509 0.08845729 0.017161425
-0.048577968 0.064699024 -0.1299272 0.26203784 -0.098625906 -0.3031279 -0.010450367 0.22182041
0.18455103 0.14208296 -0.27759373 0.24560292 -0.31120083 0.102156445 -0.01914242 0.16252737
0.19858098 -0.053018183 -0.0065251742 0.29702988 0.23806915 -0.28033727 0.16162753 -0.17666641
-0.1564336 0.22088051 -0.117547154 0.18678053
00000000: 6a38 123e fc83 373e 43c8 e6bd 8598 db3c
00000010: 6ccd 4d3e 50f7 86be a52c 9ebe 637b 3ebd
00000020: 6232 8f3e 4716 18be 57bd 24be 34f0 4ebe
00000030: d5b6 ea3d 9cfa 593e fd3d 943e ab5c 8fbe
00000040: 307b a43d d786 903e 491d 983e 7c84 15be
00000050: f01d aabc eb9e 2d3d bafe 5f3e d1d6 7e3e
00000060: 43a0 3dbe 43fe cabd 6012 fa3d 9db6 1bbe
00000070: 5f5a e93d 235d 853d 4a79 a03e c3e3 a03e
00000080: 9915 22be 3e5a 1f3e 924a e83d 9461 97be
00000090: b201 693e ce52 c0bd cc83 88be 7461 943e
000000a0: 56e7 273d f74f 293e 9c79 a13d 90b0 8f3b
000000b0: e10c 5a3e c1b2 5a3e 1d0c 5c3e a67b 9e3d
000000c0: 63ba 8f3e c883 c33d 460e 063e af54 67be
000000d0: 18cc 3fbd f8c3 3abe 79a8 45bd d60e a0be
000000e0: 1bf8 ef3d e948 3bbd 32b5 9a3e 8276 bb3d
000000f0: be11 06be daa5 603e 3df4 283e 670b 6e3e
00000100: 39be c3bd 30ef 48bc 9b73 7c3e 39fd 9a3e
00000110: e695 0d3e 40cc 673e 1829 b53d 1e96 8c3c
00000120: b1f9 46bd ec80 843d a30b 05be d329 863e
00000130: 61fc c9bd 9533 9bbe 0438 2bbc e424 633e
00000140: f2fa 3c3e 327e 113e c420 8ebe 557f 7b3e
00000150: b755 9fbe 6637 d13d 90d0 9cbc 936d 263e
00000160: d058 4b3e 9829 59bd 21d1 d5bb 4d14 983e
00000170: 66c8 733e 5e88 8fbe b081 253e 0ae8 34be
00000180: 2130 20be 802e 623e 90bc f0bd 6543 3f3e
