Experiment-1/models/one_hidden_layer/fixed_last/no_relu/best_training_0.0001.pt (torch, 1643 bytes, 1 tensors)

linear_layer_1.weight f8 [10, 10]
-0.10831563467125391 0.2971040204729604 0.1420658276047284 0.0485458642806584 -0.19951992774347863 -0.04730838457087917 -0.24558656955103217 -0.24524579489568904
-0.310881267431778 -0.2208482279811314 -0.024185621309680713 -0.23803361797670847 0.2888788477148587 -0.2062673225436633 -0.08706537181477148 -0.18502094889025136
-0.27659369552473356 -0.10864439154009065 -0.11553949410061272 -0.18438258314470563 -0.02897992463747956 0.09566431200166217 -0.023051460403603855 0.29433899080415316
-0.09093601549009878 0.011210360434251592 0.08910656427999203 0.25557588493486205 -0.2758269711766663 -0.2782819374833516 -0.3014556869302223 -0.07908466750721463
-0.06427804300527032 0.2489219204153592 0.10430569654364985 -0.19855720842222616 0.17291543340345086 0.2602227226461963 0.143460591193634 0.29927929198404035
-0.04445805320481754 -0.20412586176733502 0.22171132719178743 0.30273329174180574 0.03773956080933015 0.25279070889611793 0.11821116959710781 0.11529860353132049
-0.09130861902574927 0.2685462132658549 -0.0008180906433889976 -0.07140226209501752 0.22275004243512697 0.14738676404614992 -0.17484440946917137 -0.04835120135883731
0.09079781627317135 0.04352447470684806 0.12133062338491052 0.2736111775602885 0.07983212625642325 0.04892408182878962 0.14174946105142183 0.27646320020814485
-0.1183983414802988 0.24144371306558207 0.2228817985024041 -0.24052786374429896 -0.22095663392881779 0.1996847287382671 0.1126245827045014 -0.23069694185595044
0.15701252674718447 -0.13396136010031157 -0.06246061915497381 -0.32145873749594134 0.1192516878809518 -0.08173060709575852 -0.25735525334219367 0.026344575789172327
0.17383143758435743 0.19128777539391986 -0.16643701041082792 0.21772416388650484 0.09828909194131297 0.13771160399575783 -0.11459223473409948 -0.05950669864157877
-0.30090657914022834 0.10329827373882024 0.26140903389115827 -0.30128018105368143 -0.28669990146498137 0.10152559435029569 0.09747656887431544 0.13626356875558449
-0.10759935075382526 -0.26337636554578975 0.190884445663887 0.1759389088120052
00000000: 1efb 8ecc 92ba bbbf 3341 dc94 c003 d33f
00000010: 8082 b889 362f c23f fb09 e2e6 00db a83f
00000020: b57d 4776 de89 c9bf f2f5 1df9 cd38 a8bf
00000030: 577d 4776 616f cfbf 327d 47d6 3664 cfbf
00000040: bcbe 238b 7ae5 d3bf 4e7d 4736 c144 ccbf
00000050: 7fec 3b92 1dc4 98bf 9a7d 47b6 e277 cebf
00000060: 4041 dcb4 fd7c d23f 807d 47b6 f766 cabf
00000070: 68fb 8e8c ea49 b6bf 7d7d 4736 c4ae c7bf
00000080: aabe 230b b6b3 d1bf 68fa 8e6c 1ed0 bbbf
00000090: f1fa 8e0c ff93 bdbf 4e7d 4736 d999 c7bf
000000a0: 80ec 3bd2 e9ac 9dbf ca04 71d3 747d b83f
000000b0: 04ec 3b52 cd9a 97bf 4041 dc34 73d6 d23f
000000c0: 68fb 8e2c 9547 b7bf 3628 881b 75f5 863f
000000d0: 5405 7113 b0cf b63f 6641 dcf4 5a5b d03f
000000e0: bcbe 232b 26a7 d1bf a8be 230b 5fcf d1bf
000000f0: c8be 23cb 0c4b d3bf 36fb 8e8c e43e b4bf
00000100: 02fb 8e9c 8674 b0bf 8082 b869 acdc cf3f
00000110: 9804 7133 c7b3 ba3f 7d7d 4796 526a c9bf
00000120: a982 b8c9 1722 c63f 6641 dc34 7da7 d03f
00000130: 8982 b8a9 ea5c c23f 5841 dc54 6427 d33f
00000140: 3ff6 1db9 34c3 a6bf 9b7d 47d6 cb20 cabf
00000150: 8082 b869 0961 cc3f 4041 dc74 fb5f d33f
00000160: 2e09 e286 9952 a33f 4141 dc14 b92d d03f
00000170: 5405 7153 1643 be3f 9805 7193 3584 bd3f
00000180: f0fa 8e6c 0060 b7bf 5841 dc74 dc2f d13f
00000190: d58f 7d47 a4ce 4abf 36fb 8e2c 6b47 b2bf
000001a0: 8082 b8c9 1283 cc3f 8082 b8c9 91dd c23f
000001b0: b57d 4736 4d61 c6bf f1f5 1d19 7dc1 a8bf
000001c0: 5405 7193 863e b73f 300b e206 d748 a63f
000001d0: 1005 7113 860f bf3f 5841 dc74 d882 d13f
000001e0: e204 71d3 e06f b43f 9309 e2c6 930c a93f
000001f0: 8082 b8a9 d824 c23f 4041 dcb4 92b1 d13f
00000200: 67fb 8e8c 5a4f bebf 8382 b8a9 a0e7 ce3f
00000210: a982 b809 6487 cc3f 327d 47f6 9dc9 cebf
00000220: 777d 4796 4e48 ccbf b282 b8e9 448f c93f
00000230: e204 71f3 f6d4 bc3f 9b7d 4736 7a87 cdbf
00000240: 8082 b889 fc18 c43f 807d 4756 a525 c1bf
00000250: d0f6 1d99 d6fa afbf bebe 23ab c792 d4bf
00000260: 5405 7153 4787 be3f 68fa 8e0c 4cec b4bf
00000270: bcbe 232b 8278 d0bf 9215 c48d 12fa 9a3f
00000280: 6e82 b8c9 1b40 c63f 6582 b829 1e7c c83f
00000290: 807d 47d6 ce4d c5bf 8082 b8a9 62de cb3f
000002a0: 9804 7153 7929 b93f 8282 b8a9 88a0 c13f
000002b0: adfa 8eac ea55 bdbf d2f4 1d79 a977 aebf
000002c0: bcbe 23ab 0d42 d3bf 6505 7173 c171 ba3f
000002d0: 3741 dcf4 ecba d03f cdbe 23ab 2c48 d3bf
000002e0: c0be 238b 4a59 d2bf fd04 71d3 94fd b93f
000002f0: 9804 7173 39f4 b83f 8282 b8a9 1571 c13f
00000300: acfa 8e8c a18b bbbf 99be 238b 28db d0bf
00000310: 8982 b8c9 e66e c83f b282 b889 2a85 c63f
