Experiment-1/models/one_hidden_layer/fixed_last/no_relu/best_training_0.01.pt (torch, 1643 bytes, 1 tensors)

linear_layer_1.weight f8 [10, 10]
00000000: 3c80 a9a3 1760 bdbf e49f 155f 5f9a d23f
00000010: 0540 2b1e 745c c13f f0ff ac38 f78f a53f
00000020: 6ec0 d4e1 a05c cabf e8ff 52a7 d783 abbf
00000030: d75f eaf0 1121 d0bf ba5f eaa0 7c1b d0bf
00000040: fc5f eac0 db4e d4bf a0bf d4a1 8317 cdbf
00000050: 0101 a6ee 305a 9fbf 3cc0 d421 a54a cfbf
00000060: 05a0 157f 9c13 d23f fabf d421 ba39 cbbf
00000070: c880 a963 6fef b7bf 01c0 d4a1 8681 c8bf
00000080: d45f ea40 171d d2bf e27e a943 a375 bdbf
00000090: e47f a9e3 8339 bfbf a0bf d4a1 9b6c c8bf
000000a0: 7f00 5397 7e21 a2bf 9d7f 56fc efd7 b63f
000000b0: 1b00 a6ae e030 9ebf 04a0 15ff 116d d23f
000000c0: c880 a903 1aed b8bf 8300 68c5 9c92 733f
000000d0: 9e80 563c 2b2a b53f 8c40 2b7e f3e3 cf3f
000000e0: fc5f ea60 8710 d2bf cd5f ea40 c038 d2bf
000000f0: 0c60 ea00 6eb4 d3bf 6380 a963 69e4 b5bf
00000100: 0980 a973 0b1a b2bf 0940 2bfe e909 cf3f
00000110: 387f 565c 420e b93f 01c0 d401 153d cabf
00000120: 4f40 2b5e 554f c53f 44a0 15ff 1b3e d03f
00000130: 0c40 2b3e 288a c13f 33a0 151f 03be d23f
00000140: 8000 5367 3e0e aabf 3cc0 d441 8ef3 cabf
00000150: 0540 2bfe 468e cb3f 04a0 153f 9af6 d23f
00000160: 63fe acd8 8f07 a03f 0640 2bbe af88 cf3f
00000170: 9e80 567c 919d bc3f 1e81 56bc b0de bb3f
00000180: e47f a943 8505 b9bf 33a0 153f 7bc6 d03f
00000190: f303 98fa 21b2 7dbf 6380 a903 f0ec b3bf
000001a0: 0540 2b5e 50b0 cb3f 0640 2b5e cf0a c23f
000001b0: 6ec0 d4a1 0f34 c7bf e8ff 52c7 860c acbf
000001c0: 9e80 56bc 0199 b53f 4302 ad58 cdfd a23f
000001d0: 1e80 563c 016a bd3f 33a0 153f 7719 d13f
000001e0: c47f 56fc 5bca b23f 2cff ac18 8ac1 a53f
000001f0: 0540 2b3e 1652 c13f 04a0 157f 3148 d13f
00000200: c980 a963 dff4 bfbf ff3f 2b3e de14 ce3f
00000210: 4f40 2b9e a1b4 cb3f 69bf d461 609c cfbf
00000220: f4bf d401 111b cdbf 6040 2b7e 82bc c83f
00000230: c47f 561c 722f bb3f 3cc0 d4a1 3c5a cebf
00000240: 0540 2b1e 3a46 c33f fabf d4c1 67f8 c1bf
00000250: c780 a923 f0a2 b1bf 0160 eae0 28fc d4bf
00000260: 9d80 567c c2e1 bc3f e27e a9e3 d091 b6bf
00000270: fd5f ea60 e3e1 d0bf ff02 5a31 ff63 943f
00000280: e43f 2b5e 596d c53f c43f 2bbe 5ba9 c73f
00000290: fbbf d441 9120 c6bf 0640 2b3e a00b cb3f
000002a0: 387f 567c f483 b73f ff3f 2b3e c6cd c03f
000002b0: 617f a983 6ffb bebf dd7e a993 59e1 b0bf
000002c0: fc5f eae0 6eab d3bf c180 569c 3ccc b83f
000002d0: f49f 15bf 8b51 d03f 1c60 eae0 8db1 d3bf
000002e0: fb5f eac0 abc2 d2bf f97f 56fc 0f58 b83f
000002f0: 387f 569c b44e b73f ff3f 2b3e 539e c03f
00000300: 627f a963 2631 bdbf bc5f eac0 8944 d1bf
00000310: 0c40 2b5e 249c c73f 6040 2b1e 68b2 c53f
-0.11474750276238493 0.290672152381829 0.13563395951359794 0.042113996189527714 -0.20595179583461082 -0.05374025266200971 -0.25201843764216164 -0.25167766298681793
-0.31731313552290863 -0.22728009607226074 -0.030617489400811774 -0.24446548606784002 0.2824469796237284 -0.21269919063479376 -0.09349723990590342 -0.19145281698138208
-0.28302556361586295 -0.1150762596312194 -0.12197136219174315 -0.19081445123583496 -0.03541179272861061 0.08923244391053094 -0.029483328494734545 0.28790712271302277
-0.09736788358123072 0.004778492343121002 0.08267469618886245 0.24914401684373322 -0.28225883926779693 -0.2847138055744807 -0.3078875550213531 -0.08551653559834586
-0.07070991109640103 0.24249005232422885 0.09787382845251791 -0.20498907651335688 0.1664835653123213 0.25379085455506734 0.13702872310250347 0.29284742389291124
-0.050889921295948604 -0.21055772985846655 0.21527945910065696 0.29630142365067536 0.03130769271819813 0.24635884080498743 0.11177930150597823 0.10886673544019174
-0.09774048711687972 0.2621143451747258 -0.007249958734520045 -0.07783413018614875 0.2163181743439965 0.14095489595501948 -0.18127627756030357 -0.05478306944996786
0.08436594818204177 0.03709260661571936 0.1148987552937801 0.2671793094691594 0.07340025816529222 0.042492213737658296 0.13531759296029136 0.27003133211701447
-0.12483020957143078 0.23501184497445135 0.21644993041127455 -0.24695973183542755 -0.2273885020199483 0.19325286064713776 0.10619271461337038 -0.23712880994708196
0.150580658656054 -0.140393228191442 -0.06889248724610574 -0.3278906055870721 0.11281981978982221 -0.08816247518688727 -0.26378712143332433 0.019912707698042983
0.16739956949322654 0.18485590730278834 -0.1728688785019584 0.2112922957953744 0.09185722385018102 0.13127973590462713 -0.12102410282522903 -0.06593856673270744
-0.30733844723135895 0.0968664056476909 0.2549771658000275 -0.30771204914481287 -0.2931317695561117 0.09509372625916503 0.0910447007831835 0.1298317006644538
-0.11403121884495485 -0.26980823363691875 0.18445257757275646 0.16950704072087586
