Experiment-1/models/one_hidden_layer/fixed_last/no_relu/best_training_0.001.pt (torch, 1643 bytes, 1 tensors)

linear_layer_1.weight f8 [10, 10]
000000 5a b2 38 e8 c2 44 bd bf 65 d3 f1 8d 34 a1 d2 3f
       -0.11433046502561109 0.2910891901186033
000010 fc a6 e3 7b 1e 6a c1 3f bc 9b 8e af a0 c6 a5 3f
       0.13605099725037195 0.042531033926301615
000020 74 59 1c 84 f6 4e ca bf 25 64 71 30 2e 4d ab bf
       -0.20553475809783672 -0.053323214925235875
000030 67 2c 0e c2 3c 1a d0 bf 46 2c 0e 72 a7 14 d0 bf
       -0.25160139990538827 -0.25126062525004433
000040 87 2c 0e 92 06 48 d4 bf c9 58 1c 44 d9 09 cd bf
       -0.316896097786135 -0.22686305833548762
000050 6d c9 e2 00 de ec 9e bf 5c 59 1c c4 fa 3c cf bf
       -0.030200451664037887 -0.24404844833106665
000060 83 d3 f1 ad 71 1a d2 3f 03 59 1c c4 0f 2c cb bf
       0.28286401736050254 -0.21228215289801974
000070 f2 b2 38 a8 1a d4 b7 bf 19 59 1c 44 dc 73 c8 bf
       -0.09308020216912974 -0.1910357792446085
000080 67 2c 0e 12 42 16 d2 bf 0b b1 38 88 4e 5a bd bf
       -0.28260852587908974 -0.1146592218944457
000090 13 b2 38 28 2f 1e bf bf c9 58 1c 44 f1 5e c8 bf
       -0.12155432445496954 -0.19039741349906183
0000a0 a9 64 71 20 d5 ea a1 bf 65 4d c7 b7 44 f3 b6 3f
       -0.03499475499183664 0.08964948164730442
0000b0 8e c8 e2 c0 8d c3 9d bf 83 d3 f1 2d e7 73 d2 3f
       -0.029066290757960682 0.288324160449797
0000c0 f2 b2 38 48 c5 d1 b8 bf cb de 74 7c e8 47 75 3f
       -0.09695084584445704 0.005195530079894882
0000d0 62 4e c7 f7 7f 45 b5 3f 6d a7 e3 db 9d f1 cf 3f
       0.08309173392563587 0.24956105458050662
0000e0 87 2c 0e 32 b2 09 d2 bf 58 2c 0e 12 eb 31 d2 bf
       -0.2818418015310233 -0.2842967678377071
0000f0 95 2c 0e d2 98 ad d3 bf 9b b2 38 a8 14 c9 b5 bf
       -0.30747051728457936 -0.08509949786157238
000100 24 b2 38 b8 b6 fe b1 bf ff a6 e3 5b 94 17 cf 3f
       -0.07029287335962714 0.24290709006100283
000110 0e 4d c7 17 97 29 b9 3f 19 59 1c a4 6a 2f ca bf
       0.09829086618929159 -0.20457203877658328
000120 49 a7 e3 bb ff 5c c5 3f b6 d3 f1 2d f1 44 d0 3f
       0.1669006030490954 0.2542078922918408
000130 fb a6 e3 9b d2 97 c1 3f a8 d3 f1 4d d8 c4 d2 3f
       0.13744576083927726 0.2932644616296849
000140 aa 64 71 f0 94 d7 a9 bf 5c 59 1c e4 e3 e5 ca bf
       -0.05047288355917463 -0.21014069212169317
000150 fc a6 e3 5b f1 9b cb 3f 83 d3 f1 6d 6f fd d2 3f
       0.21569649683743097 0.29671846138744956
000160 40 9a 8e 4f 39 3e a0 3f dc a6 e3 1b 5a 96 cf 3f
       0.03172473045497215 0.24677587854176053
000170 62 4e c7 37 e6 b8 bc 3f f5 4e c7 77 05 fa bb 3f
       0.11219633924275166 0.10928377317696543
000180 13 b2 38 88 30 ea b8 bf a8 d3 f1 6d 50 cd d0 3f
       -0.0973234493801061 0.26253138291149947
000190 98 25 8b 43 d6 fc 7b bf 9b b2 38 48 9b d1 b3 bf
       -0.006832920997746149 -0.07741709244937527
0001a0 fc a6 e3 bb fa bd cb 3f fd a6 e3 bb 79 18 c2 3f
       0.2167352120807705 0.1413719336917935
0001b0 74 59 1c 44 65 26 c7 bf 25 64 71 50 dd d5 ab bf
       -0.18085923982352947 -0.05436603171319402
0001c0 62 4e c7 77 56 b4 b5 3f da 9d 8e cf 76 34 a3 3f
       0.0847829859188152 0.03750964435249289
0001d0 ed 4d c7 f7 55 85 bd 3f a8 d3 f1 6d 4c 20 d1 3f
       0.11531579303055368 0.26759634720593306
0001e0 a6 4d c7 b7 b0 e5 b2 3f e0 9a 8e 8f 33 f8 a5 3f
       0.07381729590206607 0.04290925147443203
0001f0 fc a6 e3 9b c0 5f c1 3f 83 d3 f1 ad 06 4f d1 3f
       0.13573463069706537 0.2704483698537887
000200 f4 b2 38 a8 8a d9 bf bf e7 a6 e3 9b 88 22 ce 3f
       -0.12441317183465711 0.23542888271122495
000210 49 a7 e3 fb 4b c2 cb 3f 7c 58 1c 04 b6 8e cf bf
       0.21686696814804865 -0.24654269409865381
000220 05 59 1c a4 66 0d cd bf 37 a7 e3 db 2c ca c8 3f
       -0.22697146428317452 0.19366989838391088
000230 a6 4d c7 d7 c6 4a bb 3f 5c 59 1c 44 92 4c ce bf
       0.10660975235014422 -0.2367117722103086
000240 fc a6 e3 7b e4 53 c3 3f 03 59 1c 64 bd ea c1 bf
       0.150997696392828 -0.139976190454668
000250 f2 b2 38 68 9b 87 b1 bf 7f 2c 0e b2 53 f5 d4 bf
       -0.06847544950933207 -0.32747356785029774
000260 62 4e c7 37 17 fd bc 3f 0b b1 38 28 7c 76 b6 bf
       0.11323685752659565 -0.08774543745011358
000270 87 2c 0e 32 0e db d0 bf 47 3a 1d 1f 52 d1 94 3f
       -0.2633700836965506 0.020329745434816606
000280 d2 a6 e3 bb 03 7b c5 3f a4 a6 e3 1b 06 b7 c7 3f
       0.1678166072300003 0.1852729450395617
000290 04 59 1c e4 e6 12 c6 bf fd a6 e3 9b 4a 19 cb 3f
       -0.17245184076518438 0.2117093335321484
0002a0 0e 4d c7 37 49 9f b7 3f e7 a6 e3 9b 70 db c0 3f
       0.0922742615869547 0.13169677364140073
0002b0 9e b1 38 c8 1a e0 be bf 17 b1 38 d8 04 c6 b0 bf
       -0.12060706508845562 -0.06552152899593398
0002c0 87 2c 0e b2 99 a4 d3 bf 8a 4e c7 57 91 e7 b8 3f
       -0.3069214094945853 0.0972834433844644
0002d0 6b d3 f1 ed 60 58 d0 3f 9b 2c 0e b2 b8 aa d3 bf
       0.25539420353680126 -0.30729501140803855
0002e0 7d 2c 0e 92 d6 bb d2 bf e1 4d c7 b7 64 73 b8 3f
       -0.29271473181933755 0.09551076399593895
0002f0 0e 4d c7 57 09 6a b7 3f e7 a6 e3 9b fd ab c0 3f
       0.09146173851995718 0.1302487384012274
000300 9e b1 38 a8 d1 15 bd bf 4a 2c 0e 92 b4 3d d1 bf
       -0.11361418110818142 -0.26939119590014526
000310 fb a6 e3 bb ce a9 c7 3f 37 a7 e3 7b 12 c0 c5 3f
       0.18486961530953025 0.16992407845764898
