Experiment-3/models/1_layer_0-1_MLP.pt (torch, 80875 bytes, 1 tensors)

linear.weight f4 [2, 10000]
0	0x3b7bd504	0.0038426528
1	0x3bca7350	0.006178297
2	0xbbe4e5f6	-0.0069854213
3	0xbc20a60d	-0.009805215
4	0x3c0f6f6e	0.008754594
5	0xbc0faaaf	-0.0087687215
6	0xbbbb7f94	-0.0057219956
7	0x3b271c68	0.002549911
8	0xba6964f0	-0.00089032855
9	0x3aaf87e0	0.0013391934
10	0x3b0b714c	0.0021277247
11	0x39236fc0	0.00015586521
12	0x3bcbe564	0.006222414
13	0xba5f49d0	-0.0008517774
14	0xbb6e3980	-0.003635019
15	0x3ba126ec	0.00491797
16	0x3b8f87ca	0.004380201
17	0x3b718c44	0.0036857286
18	0x3a382d30	0.00070257764
19	0x38f39300	0.00011614524
20	0xbb8c38ca	-0.0042792307
21	0x3bfbf460	0.007689044
22	0xba76b880	-0.0009411648
23	0x3bdd7f10	0.006759532
24	0xbbe0229e	-0.006840064
25	0xb8419600	-4.6154484e-05
26	0x3bed65f4	0.00724482
27	0xbbdce196	-0.006740759
28	0x3b378b90	0.002800677
29	0xbba1a50f	-0.0049330066
30	0x3bced9e8	0.0063125975
31	0x3be2bafc	0.006919263
32	0x3b5376dc	0.003226689
33	0xbb53c01e	-0.0032310556
34	0xbbfed68a	-0.00777704
35	0x3aa194e0	0.0012327693
36	0x38ffbb00	0.00012194179
37	0xbc0a3d2f	-0.008437439
38	0xbc23c054	-0.009994585
39	0xbbee3cf6	-0.0072704507
40	0x3b52f500	0.0032189488
41	0x3bce7fa0	0.006301835
42	0xbb9f021e	-0.0048525473
43	0xbb011770	-0.0019697808
44	0xba992a90	-0.0011685658
45	0xbb06712c	-0.0020514233
46	0x3bfa4920	0.0076381117
47	0x39ac19c0	0.00032825582
48	0xbb66d310	-0.0035221018
49	0xbc05d5ab	-0.008168618
50	0xbbffb282	-0.007803262
51	0xba8360a0	-0.0010023303
52	0xba95c908	-0.001142771
53	0xbbba8861	-0.005692527
54	0x3c08913a	0.008335406
55	0x3b772344	0.003771023
56	0xbaab8770	-0.0013086628
57	0xbc0f7077	-0.008754841
58	0xbbd195e6	-0.006396043
59	0xbbe0e252	-0.006862917
60	0xbb5baec8	-0.0033520926
61	0xbb9672ae	-0.0045913076
62	0xbafea098	-0.0019426523
63	0x3c1a78a8	0.009428181
64	0x3aefddc0	0.001830034
65	0x3bc82cc4	0.006108852
66	0xbc214193	-0.009842294
67	0x3c221576	0.009892812
68	0xbb2ecd10	-0.002667252
69	0xbb7c7a0a	-0.003852489
70	0xbaa5abb0	-0.0012639668
71	0x3bd0e150	0.0063745156
72	0x3bbbc4fc	0.0057302695
73	0x3c20f6ac	0.009824436
74	0x3befa91c	0.0073138606
75	0xbb380aae	-0.0028082537
76	0xbb7b7580	-0.0038369596
77	0xbc06ea0f	-0.008234515
78	0x3bfd1518	0.007723462
79	0xbc1952e6	-0.009358143
80	0x3c22d71a	0.0099389795
81	0x3bd6c5e0	0.0065543503
82	0x3bca8dc8	0.0061814524
83	0x3b085cf0	0.0020807348
84	0x3b42d46c	0.0029728664
85	0x3b1abc28	0.0023610685
86	0x3af967b8	0.0019028103
87	0x3b439f04	0.002984942
88	0x3b371600	0.0027936697
89	0xbb8b4136	-0.004249717
90	0x3b76adb8	0.0037640166
91	0x3aa66f70	0.0012698006
92	0xbba9272b	-0.00516214
93	0xbc12960a	-0.008946905
94	0x3bf92c04	0.007604124
95	0xbb85d005	-0.0040836358
96	0x3b58dfa0	0.0033092275
97	0x3b17bea4	0.0023154402
98	0xbb1ab81e	-0.0023608278
99	0xbb41fd42	-0.0029600416
100	0x3c211710	0.009832159
101	0xbb546410	-0.0032408275
102	0x3b3440bc	0.0027504405
103	0xbae46f98	-0.0017428277
104	0x3a848568	0.0010110559
105	0x38c61400	9.445101e-05
106	0x3a84c900	0.0010130703
107	0x37e0ee00	2.6813708e-05
108	0x3bd43308	0.00647581
109	0xb8cf6d00	-9.890832e-05
110	0x3ac1ef40	0.0014796034
111	0xbb79b3cc	-0.0038101552
112	0x3bf8f760	0.007597849
113	0x3c04d490	0.0081073195
114	0xba96a518	-0.0011493294
115	0xbc102a84	-0.008799199
116	0xbad34bf8	-0.0016120663
117	0xbc04bf19	-0.008102202
118	0x3c1006e2	0.0087907035
119	0x3908a480	0.00013031252
120	0xbbf45f30	-0.0074576363
121	0xbab95430	-0.001413947
122	0xbb243e00	-0.002506137
123	0x3ab0fd28	0.0013503181
124	0x3bd316c8	0.0064419247
125	0xbbd5f06b	-0.006528904
126	0xbbbbffa9	-0.005737264
127	0x3c19b1b4	0.009380747
128	0xb9f26400	-0.00046232343
129	0xbb1080a8	-0.0022049341
130	0x3c182072	0.009285079
131	0x3be42f58	0.0069636516
132	0xbbbfe145	-0.0058557116
133	0xbbdfbaae	-0.006827674
134	0x3b9b070c	0.0047310647
135	0xbb862e00	-0.004094839
136	0x3a681b40	0.0008854158
137	0xbb19e09e	-0.002347983
138	0xbc07f20a	-0.008297453
139	0x3b7bcb3c	0.0038420698
140	0x3b9ca3b8	0.004780259
141	0x3b980476	0.0046392037
142	0x3c222d5e	0.009898512
143	0xbbedbdf3	-0.0072553097
144	0x3c1908f6	0.009340515
145	0x3bad90fe	0.0052968254
146	0x3c026330	0.007958218
147	0xbbefee48	-0.0073221065
148	0x3c088a74	0.008333791
149	0x3c0b34d6	0.008496484
150	0x3a113440	0.0005539097
151	0x3bbe1048	0.0058002807
152	0x39e16860	0.0004299311
153	0xbc1218bc	-0.00891703
154	0x3ae4cf58	0.0017456813
155	0xbc1bdb6f	-0.009512766
156	0xbbfa515e	-0.0076390943
157	0x3b2bc46c	0.0026209606
158	0xbad369d8	-0.0016129566
159	0xba2ab720	-0.0006512273
160	0x3bf5b3ec	0.007498255
161	0x3b975c24	0.0046191383
162	0xbb70ea7a	-0.0036760853
163	0xbbed5b68	-0.0072435625
164	0xbbb3db12	-0.0054887617
165	0x3c09fbf8	0.00842189
166	0x3b1cf72c	0.0023951037
167	0x3b84544a	0.0040383684
168	0x3be558a0	0.0069990903
169	0xbb0706b4	-0.002060336
170	0xbabefd50	-0.0014571343
171	0xbc1117b9	-0.008855754
172	0x3c23cafe	0.009997128
173	0xbc073794	-0.008252997
174	0xbbe4f60f	-0.0069873403
175	0x3b791afc	0.0038010469
176	0xbaee3d58	-0.0018176241
177	0x3bdc7cdc	0.0067287516
178	0xbbd913eb	-0.006624689
179	0xbc030128	-0.007995881
180	0x3c132e2c	0.008983176
181	0xbc0dc3a6	-0.008652603
182	0xb9553140	-0.0002033161
183	0xbb256e42	-0.002524272
184	0x3bed6eac	0.007245859
185	0x3b19b94c	0.0023456393
186	0x3bb126c0	0.0054062307
187	0xbb96028a	-0.0045779394
188	0x3ba877d0	0.005141236
189	0x3b64c9d8	0.0034910347
190	0xb625c000	-2.4698675e-06
191	0xba713170	-0.0009200787
192	0xba682890	-0.0008856142
193	0xbc058d16	-0.008151313
194	0x3bdb97ec	0.00670146
195	0xbb62b248	-0.0034591127
196	0xbb8724a1	-0.0041242396
197	0xbb10dc52	-0.0022103977
198	0x3b025a34	0.001989019
199	0xbbc17bab	-0.005904635
200	0xbb2ad514	-0.0026066946
201	0x3c03490a	0.008013019
202	0xbbfee77d	-0.0077790604
203	0xbbd3ee26	-0.0064675985
204	0xbc1136fb	-0.008863206
205	0x3abfe398	0.0014639972
206	0x3ba78d0a	0.0051132487
207	0x3bbba144	0.0057260115
208	0xbb532432	-0.003221762
209	0x3b390650	0.0028232522
210	0x3b66af80	0.003519982
211	0xbc0d51a8	-0.008625425
212	0xbc1c1faf	-0.009529038
213	0x3af56350	0.0018721614
214	0x3b9e7578	0.0048357807
215	0xbb412f94	-0.0029477822
216	0xbc053136	-0.008129409
217	0x3b95252e	0.0045515513
218	0x3ba5f114	0.005064139
219	0xbb92a7a9	-0.004475553
220	0xbb73cc0a	-0.0037200474
221	0xbaf93598	-0.0019013165
222	0xbbd59c40	-0.0065188706
223	0x3be0dba8	0.0068621226
224	0xbb1c843e	-0.0023882533
225	0x3bd97038	0.006635692
226	0x39aeada0	0.00033317227
227	0xbc01b18a	-0.007915864
228	0xbb2cc53e	-0.0026362683
229	0xbc12285c	-0.008920755
230	0xbadd0068	-0.0016861083
231	0x3a299980	0.00064697117
232	0xbb854bf0	-0.0040678903
233	0xbae865d8	-0.0017730547
234	0x3bf93b18	0.0076059215
235	0xbb8f4264	-0.004371928
236	0xbb9f8f29	-0.004869361
237	0xbb68003e	-0.0035400535
238	0xbb31e92f	-0.0027147045
239	0xbb9a4b96	-0.0047087176
240	0xbb86e794	-0.0041169617
241	0x3b75326c	0.0037414087
242	0x3b3b19fc	0.0028549423
243	0x3b584267	0.0032998563
244	0xbc10a248	-0.008827753
245	0x3bc40c2d	0.005982897
246	0x3c1135f1	0.008862958
247	0x3c0ac064	0.008468721
248	0x39678715	0.00022080199
249	0x3bfcd571	0.007715874
250	0xbc24e506	-0.010064369
251	0xba54cc0f	-0.00081175653
252	0xbb2e4757	-0.0026592815
253	0xba95c63e	-0.0011426879
254	0x3a5541f0	0.00081351306
255	0xbc157cb6	-0.009123972
