Experiment-3/models/1_layer_sparse.pt (torch, 8043 bytes, 1 tensors)

linear.weight f4 [2, 900]
0.012808844 0.020594329 -0.023284739 -0.03268405 0.029181983 -0.029229075 -0.01907332 0.008499701
-0.0029677637 0.004463978 0.0070924163 0.0 0.02074138 -0.0028392598 -0.01211673 0.016393233
0.014600672 0.012285762 0.002341926 0.0 -0.014264103 0.025630146 -0.003137216 0.022531778
-0.022800216 -0.0 0.0241494 -0.0224692 0.009335589 -0.016443357 0.021041993 0.023064211
0.010755632 -0.010770187 -0.025923468 0.0041092336 0.0 -0.028124798 -0.033315286 -0.024234837
0.010729831 0.021851039 -0.015330019 -0.0057207495 -0.0031472514 -0.007984964 0.024522625 0.001433865
-0.010971294 -0.026353663 -0.026010877 -0.003341103 -0.0038092379 -0.018975092 0.02778469 0.012570076
-0.0043622106 -0.029182805 -0.021320146 -0.022876391 -0.011173643 -0.015304359 -0.006475508 0.031427275
0.0061001144 0.02036284 -0.03199524 0.03410971 -0.007983209 -0.012042562 -0.0050568567 0.02061098
0.018893022 0.03257551 0.023304816 -0.011432738 -0.0149798365 -0.029443825 0.024078242 -0.031997964
0.03269324 0.021295778 0.019725543 0.0069357827 0.009909555 0.007870231 0.0063427016 0.009949807
0.009312231 -0.014165724 0.012546722 0.0042326674 -0.018026369 -0.03064206 0.026029281 -0.012612274
0.012064272 0.009093792 -0.006171538 -0.00859105 0.033930436 -0.008471551 0.012364499 -0.0027294857
0.005518058 0.0 0.004760835 -0.0 0.023715124 0.0 0.0071250875 -0.010479074
0.027532365 0.028678646 -0.002720206 -0.028164085 -0.0045569884 -0.02619091 0.029302347 0.0
-0.02485879 -0.004713157 -0.009173358 0.0044950685 0.022055361 -0.021655738 -0.018805526 0.032530427
0.0 -0.0038734742 0.034962025 0.027213547 -0.0156184845 -0.020342285 0.016289022 -0.014616061
0.0021107718 -0.0082355905 -0.028679159 0.011159034 0.013029214 0.011412708 0.029147075 -0.026741419
0.029557351 0.01646504 0.0256696 -0.023590734 0.027779307 0.028321613 0.0018463656 0.019334275
-0.0 -0.030035926 0.005443845 -0.032333355 -0.025174627 0.010896062 -0.0013123472 0.0
0.030721793 0.021205937 -0.0066358703 -0.019427888 -0.015230777 0.029529078 0.0091585405 0.014973922
0.024774535 -0.005966429 -0.0046880376 -0.030087164 0.032780435 -0.027323382 -0.023046989 0.011880703
-0.007814485 0.0214054 -0.022919368 -0.026652938 0.029943924 -0.028842013 -0.0 -0.009353125
0.024152376 0.008766721 0.020013811 -0.01143292 0.022549609 0.017771099 0.0 0.0
0.0 -0.021391425 0.027087728 -0.008343312 -0.011303378 -0.0046884376 0.009803855 -0.016239153
-0.004953385 0.030830162 -0.021348411 -0.016671728 -0.02485077 0.008312807 0.016907103 0.020153224
-0.011181757 0.01023852 0.011733275 -0.028751418 -0.032615624 0.0047976472 0.016555049 -0.007484237
-0.023436198 0.02035699 0.02295883 -0.008463785 -0.005796921 0.0 -0.015226019 0.02902593
-0.0026649393 0.025609503 0.0029561024 -0.02450844 -0.0056171212 -0.025352614 0.0 0.007900996
-0.007469245 0.0 0.03162163 -0.008613322 -0.0122899795 -0.009829877 -0.009476524 -0.0154079795
-0.013407498 0.012784768 0.00861132 0.009436935 -0.029418869 0.022395145 0.033874445 0.033633515
0.0 0.03260139 -0.026296096 0.0 -0.0015857257 0.0 0.008654898 -0.027840989
00000000: 30dc 513c 70b5 a83c a3bf bebc b6df 05bd
00000010: 0e0f ef3c d071 efbc a73f 9cbc 5442 0b3c
00000020: d07e 42bb 9046 923b 8067 e83b 0000 0000
00000030: d4e9 a93c e012 3abb 4085 46bc 1a4b 863c
00000040: a837 6f3c 384a 493c 007b 193b 0000 0000
00000050: fcb3 69bc 50f6 d13c c099 4dbb 9094 b83c
00000060: 85c7 babc 0000 0080 f6d4 c53c 5411 b8bc
00000070: 4cf4 183c 38b4 86bc 4260 ac3c 28f1 bc3c
00000080: 6438 303c 7075 30bc 745d d4bc c0a6 863b
00000090: 0000 0000 fa65 e6bc 9c75 08bd 2388 c6bc
000000a0: 2ccc 2f3c f300 b33c c32a 7bbc 2075 bbbb
000000b0: 1e42 4ebb 5ed3 02bc ace3 c83c 87f0 bb3a
000000c0: f1c0 33bc a3e3 d7bc c314 d5bc 68f6 5abb
000000d0: 68a4 79bb a771 9bbc b89c e33c b8f2 4d3c
000000e0: e0f0 8ebb c710 efbc 96a7 aebc 4567 bbbc
000000f0: a811 37bc 22bf 7abc 8030 d4bb e3b9 003d
00000100: 78e3 c73b f8cf a63c 710d 03bd a0b6 0b3d
00000110: 01cc 02bc 2a4e 45bc fdb3 a5bb 5cd8 a83c
00000120: 8ac5 9a3c e66d 053d bee9 be3c 6150 3bbc
00000130: fd6d 75bc 2d34 f1bc bc3f c53c 4c10 03bd
00000140: 59e9 053d 7c74 ae3c 7697 a13c 9045 e33b
00000150: b05b 223c 24f2 003c 70d6 cf3b 8404 233c
00000160: 5492 183c 5a17 68bc c490 4d3c 30b2 8a3b
00000170: 09ac 93bc 0f05 fbbc 5c3b d53c b6a3 4ebc
00000180: 39a9 453c 21fe 143c 9d3a cabb 7ac1 0cbc
00000190: a4fa 0a3d 43cc 0abc 7894 4a3c 2ce1 32bb
000001a0: d3d0 b43b 0000 0000 c700 9c3b 0000 0080
000001b0: 3846 c23c 0000 0000 9179 e93b 6cb0 2bbc
000001c0: 8e8b e13c 7bef ea3c 7c45 32bb 5eb8 e6bc
000001d0: ca52 95bb 528e d6bc 7a0b f03c 0000 0000
000001e0: a9a4 cbbc d470 9abb da4b 16bc 5e4b 933b
000001f0: 72ad b43c 6067 b1bc 0c0e 9abc a03e 053d
00000200: 0000 0000 1dda 7dbb 5734 0f3d f2ee de3c
00000210: ace4 7fbc dda4 a6bc 8e70 853c 3478 6fbc
00000220: e054 0a3b 92ee 06bc 8ef0 eabc 62d4 363c
00000230: 7c78 553c 5efc 3a3c d9c5 ee3c d210 dbbc
00000240: 4222 f23c b1e1 863c 0e49 d23c 5b41 c1bc
00000250: 6e91 e33c ba02 e83c c001 f23a ea62 9e3c
00000260: 0000 0080 e70d f6bc 4862 b23b fb6f 04bd
00000270: 053b cebc 6585 323c 1103 acba 0000 0000
00000280: 45ac fb3c 13b8 ad3c b771 d9bb 3c27 9fbc
00000290: 828a 79bc f7e6 f13c b40d 163c 2e55 753c
000002a0: f7f3 ca3c 0982 c3bb 1c9e 99bb 5b79 f6bc
000002b0: c744 063d 49d5 dfbc 0acd bcbc 48a7 423c
000002c0: 5308 00bc 615a af3c 66c1 bbbc 4357 dabc
000002d0: f64c f53c 1646 ecbc 0000 0080 d93d 19bc
000002e0: 34db c53c 4ba2 0f3c 01f4 a33c 2451 3bbc
000002f0: f5b9 b83c b294 913c 0000 0000 0000 0000
00000300: 0000 0000 123d afbc 15e7 dd3c 63b2 08bc
00000310: ce31 39bc 77a1 99bb 59a0 203c f907 85bc
00000320: 0150 a2bb 898f fc3c dde2 aebc 2693 88bc
00000330: d893 cbbc 7132 083c c480 8a3c 6018 a53c
00000340: b033 37bc 77bf 273c ec3c 403c 1888 ebbc
00000350: f697 05bd 9535 9d3b 749e 873c 553e f5bb
00000360: 45fd bfbc b4c3 a63c 2814 bc3c b0ab 0abc
00000370: 19f4 bdbb 0000 0000 8d76 79bc cac7 ed3c
00000380: 43a6 2ebb 05cb d13c 2bbb 413b edc5 c8bc
00000390: d40f b8bb 49b0 cfbc 0000 0000 2e73 013c
000003a0: 92c0 f4bb 0000 0000 af85 013d e41e 0dbc
000003b0: e95b 49bc 7e0d 21bc 6c43 1bbc c071 7cbc
000003c0: 1fab 5bbc 3477 513c 7e16 0d3c 609d 1a3c
000003d0: d7ff f0bc 0676 b73c eebf 0a3d 4cc3 093d
000003e0: 0000 0000 0989 053d e96a d7bc 0000 0000
000003f0: 20d8 cfba 0000 0000 46cd 0d3c c912 e4bc
