Experiment-3/models/2_layer_10_vanilla_MLP.pt (torch, 407655 bytes, 2 tensors)

linear_1.weight f4 [128, 784]
00000000: 9c5f ccbc b06f 0fbd 3511 003d 1d46 00bd
00000010: c568 a7bc ca34 153c 4a63 50bb 53b9 9c3b
00000020: 2e01 f93b dcec 113a d10c b63c 5c5d 47bb
00000030: 0cc5 6cbd 7527 e0bc f526 803c f3aa 573c
00000040: 8071 243b 4a7a d939 6a65 7abc 9ef5 e03c
00000050: 4a49 5cbb bec3 c53c ea1e c8bc 01d8 2cb9
00000060: 75f6 d33c 2337 c5bc 2ee1 233c 6053 90bc
00000070: 47b0 b83c 1770 ca3c b3ce 3c3c 1c10 3dbc
00000080: b388 e3bc ee44 903b cb69 9fbd f021 f2bd
00000090: 338e 80bd 6bfd 59bd d0f4 46bd b07f 22bd
000000a0: 5f3f febd f2f7 bbbd 431f 593a 13ec 4abd
000000b0: 9a52 8a3c 1b8c 2ebd 665f e3bd c25b e4bd
000000c0: 9b48 f1bd 2b8f 86bd 5c56 28bd 557b bebc
000000d0: c5de f33c a1a8 5c3c a526 99bb 2212 00bd
000000e0: 4521 bbbc 13ca c8bc 8084 2abd aa2e 7dbd
000000f0: efde 63bd a06c 36bc 5c34 b9bd cba0 b5bd
00000100: 314b bebd 9ba2 0a3d 3330 5dbd fdf9 91bc
00000110: 821f d83c d2a5 043d bfcf 733b 4b73 6a3d
00000120: 0c55 cc3d 097d f13c ab55 47bc 63e6 4fbd
00000130: d863 d6bc b539 e4bd c7a6 37bd 05c9 4cbd
00000140: e80c 5dbd 1d30 47bc 85f4 2d3c 0028 0a3c
00000150: e5ae de3b 6aa9 2e3c 014e 8e3d fb1a 5fbd
00000160: ef57 66bd afa7 963c b55a 0abd 6178 5bbd
00000170: 093d 903c 6500 a2bc 007f 6d3c f9a5 8e3d
00000180: 98f0 023e 25dc a03d c6fe f53d f5e5 a93d
00000190: 535f cb3d 5aaf 433d 875f edb9 476c 813c
000001a0: 8696 283c 9dc6 3ebd 949c 9ebd abba 14be
000001b0: f019 b4bd 349b c0bc 97d1 14bd 6e32 ed3c
000001c0: 1c81 86bb 3f58 e7bc 7ba5 933d 50a6 1f3d
000001d0: 3a18 bbba 4b24 683d 6623 2b3d a836 e53c
000001e0: 23fd 503b cfc7 cf3c b781 833d d4ac 643d
000001f0: aac9 993d 7e3f d43d 2ff2 713d 04a1 aa3d
00000200: cfaa ea3d 5c0e ae3d d5a7 d73c a744 2d3b
00000210: 8738 87bc f3ef 8abd b84b 7abd 66f4 e1bd
00000220: 5330 81bd 2811 30bc 647f 163b 2f00 18bc
00000230: 15cd 103d 0745 d4bc 9036 8d3d 135b ef3d
00000240: c3e3 333d 0481 493d ff6d 633d 6b79 133d
00000250: ba6b 53bc 3f3e 3d3d 45ec 533d 28bb 263c
00000260: 46ab d63c 3917 25bd 8b89 dcbc 8bfa 6d3d
00000270: 8cf3 963d 456c 793d d4f8 ac3d b753 623d
00000280: 8ef1 bcbb e10a 0cbd 9eb1 ecbb aaa1 c63b
00000290: 6be6 d0bc 2f7a 6c3a 48d7 b73c 7828 f6bc
000002a0: c086 aabb d1b9 003d 6ee9 453d 3c8c 073d
000002b0: 57e7 843c 7362 923d 1071 253d 860a 733c
000002c0: b55b 44bd 5755 04bc e014 403d a273 59bd
000002d0: c574 67bd aef6 52bd 442b 1c3b 6ef4 11bb
000002e0: 7ae3 743d 69c4 123d cd74 b83d e8e6 883d
000002f0: 82a1 413d a1cc a23b e4d1 4abd 12b1 a9bd
00000300: d4f5 1cbc cf3b 35bd 9b24 b23a 0e69 64bd
00000310: a5c5 e83b b070 4d3d 4fe5 cfbc 31b0 9b3d
00000320: b8c0 f43c 66bb 6b3d 8623 693b 62a1 48bc
00000330: 48f0 37bb 55cb 41bc 6b6c 5dbd a1df 02bd
00000340: 6db6 88bd 63c4 e3bd 8398 95bd 8b7e 90bc
00000350: a6ec 693d 28d8 893d 0e7c 2f3d b24b a43d
00000360: 7bf1 4d3d 7e61 0dbd c43f 84bd 0067 d6bd
00000370: 01e0 e0bd ddd4 d7bc a8d9 e7ba f4ea 75bc
00000380: 49ad 8ebd 91b2 b5bd a511 64bc 7787 293c
00000390: 1eb3 5a3d 0f87 3d3d 070b 9bbc 1c4b cebc
000003a0: 1cd9 b0bc 56af 65bd 300f 40bd 4334 8cbd
000003b0: 4994 94bd 04d1 88bd 4355 15bd d9b2 893d
000003c0: eb6b b93d 10f1 da3d bc9b 843d deeb 8e3d
000003d0: c237 b33c ecf1 0cbd 4b67 86bd 67ca 55bd
000003e0: 077c dabd 0292 263d 49e3 033d 0a6c 9b3c
000003f0: 688c 10bc d541 8dbd aa8d 4f3d 6d6d fb3c
-0.024947934 -0.035018623 0.03126641 -0.031316865 -0.0204357 0.009106824 -0.0031797462 0.0047828346
0.0075990176 0.0005566606 0.022222908 -0.0030420637 -0.057805106 -0.027362565 0.015643576 0.013163316
0.0025092065 0.00041480578 -0.015282968 0.02746087 -0.003361302 0.024141189 -0.024428803 -0.00016483666
0.025874356 -0.024074143 0.0100024175 -0.017617881 0.022544993 0.024711652 0.01152389 -0.011539485
-0.027775144 0.0044027483 -0.0778385 -0.11822879 -0.06277122 -0.053220194 -0.048573315 -0.039672554
-0.12414431 -0.09178151 0.00082825514 -0.049541544 0.01688509 -0.042614084 -0.1110218 -0.11150314
-0.117814265 -0.06570276 -0.041097984 -0.023252169 0.02976931 0.013467939 -0.0046737962 -0.031267293
-0.022843013 -0.024510419 -0.041630268 -0.06181208 -0.055632528 -0.011134297 -0.0904319 -0.088685594
-0.092916854 0.03384648 -0.054001044 -0.017819399 0.026382212 0.0323847 0.0037202684 0.05723886
0.09977159 0.029478567 -0.012166421 -0.050756823 -0.026170656 -0.11143819 -0.044836786 -0.049996395
-0.053967386 -0.012157467 0.01061738 0.008432388 0.0067957514 0.010660509 0.06948472 -0.05446909
-0.056236204 0.018390505 -0.03377791 -0.0535816 0.017607229 -0.019775579 0.014495611 0.069652505
0.12787092 0.07854489 0.12011485 0.08295814 0.09930291 0.04777465 -0.00045275336 0.015798701
0.010289794 -0.04657613 -0.07744709 -0.14524333 -0.0879401 -0.023511507 -0.036332693 0.02895471
-0.0041047465 -0.028240321 0.07209297 0.038976967 -0.0014274188 0.056675237 0.041781805 0.027980164
0.0031889162 0.02536383 0.064212255 0.055828884 0.075091675 0.10363673 0.059068855 0.083314925
0.114583604 0.084988326 0.026325146 0.0026438625 -0.016506447 -0.06784048 -0.061107367 -0.110329434
-0.06308045 -0.010746278 0.0022964114 -0.0092773875 0.03535183 -0.025911821 0.068951726 0.11687293
0.043918382 0.049195305 0.055524822 0.036004465 -0.012904102 0.04620194 0.051738996 0.010176457
0.026204716 -0.04030535 -0.026921054 0.058100265 0.07370672 0.06089427 0.08445898 0.055255618
-0.0057661003 -0.034190062 -0.007223322 0.0060617523 -0.025500497 0.00090208923 0.022441521 -0.030048594
-0.0052040517 0.03142721 0.04831832 0.033092722 0.016223593 0.07147684 0.040391028 0.014834052
-0.04793902 -0.008076987 0.046894908 -0.05308879 -0.056507844 -0.051504783 0.00238295 -0.0022270936
0.05978725 0.035831843 0.09006653 0.06684667 0.047273166 0.0049682413 -0.049516574 -0.082857266
-0.009580094 -0.04424649 0.0013591232 -0.05576425 0.007103639 0.050156295 -0.025377898 0.07601965
0.029877052 0.057551764 0.0035574152 -0.012245508 -0.0028066803 -0.011828263 -0.054058474 -0.03195155
-0.0667542 -0.11121442 -0.0730448 -0.017638465 0.05711045 0.06730682 0.042842917 0.0802225
0.05027912 -0.034516804 -0.06457475 -0.104688644 -0.10980225 -0.026346618 -0.0017688768 -0.0150096305
-0.06966645 -0.088719495 -0.013920222 0.010347239 0.053393476 0.04627138 -0.018926157 -0.0251823
-0.0215879 -0.056075417 -0.046889484 -0.06845906 -0.07254846 -0.066804916 -0.036458265 0.067235656
0.09053787 0.1069051 0.064750165 0.06978582 0.021877173 -0.034410402 -0.0656267 -0.05219498
-0.106681876 0.040666588 0.032199178 0.018972415 -0.008822538 -0.06897322 0.05067221 0.030691827

linear_2.weight f4 [10, 128]
00000000: 478c 53be 558d bc3d ea38 dbbd 2ae0 303d
00000010: d31f c6bb a872 9bbd 1b6d 103e 2ae9 103e
00000020: 7903 3ebe d077 56be ee22 243e a326 56bd
00000030: 24aa 003e d4c0 393d 08b6 d3bd 3395 0fbe
00000040: 1a81 c83d ae4f 8d3c 91bc e03d 5506 d73d
00000050: e01e 9fbe 2b4f cc3d 0627 72be 1ab3 533e
00000060: 0f90 273e 4ae6 f23d 4763 21be e25b 253e
00000070: 62e3 a5bd 763b 053e 6758 003e 9ea7 c5be
00000080: af1b 8e3c cb45 533d 8379 563d f5d6 b5be
00000090: edd6 53be 34a7 9f3c 8819 833c 5922 353e
000000a0: 3e75 84be 7ae7 74be 8526 21be df73 343d
000000b0: f02a a4be b140 27be afa7 123c 1802 8dbd
000000c0: 103c 3abe f173 33be b61c 1a3e ef60 30be
000000d0: 6515 213e 7543 a2be e414 76be 8a18 2a3d
000000e0: ba5c 953d df05 a8bd 1c64 683d 95a6 53be
000000f0: a259 33be 04c4 26be e841 213e a7e9 b1bb
00000100: 3900 4f3e 9c8c 68bd cc3b 9ebd eab9 0b3e
00000110: cbc9 ab3d 543f d43d 6fde f03c bdba ea3d
00000120: 710c dc3d fdff 883d df6a 8d3b d1f9 213e
00000130: cebc 1b3e 904e e93d e846 2a3d 3d01 4fbe
00000140: 1295 cabd 2dee efbd 2f53 4cbd dd52 febd
00000150: ea39 1a3e a9ff 62bd 9bee 00be 7f8c 8fbe
00000160: 666b f53d 2ef4 0cbe 7286 dabe 424b 193e
00000170: bcad 3b3e db6b f5bd 0307 d83d af0b ab3d
00000180: bb9b 0cbe 1076 a8bd 6b02 cdbe 7dd8 31be
00000190: 76c3 033d f25d 75bc 9169 98bd e679 09be
000001a0: dd0a eabc a9bd 613d fec2 4abe f185 71be
000001b0: 9d34 52bd 6e3f 093d d6c6 213e 486f d93d
000001c0: 67a5 26be 8694 123e c491 64be 1e90 debd
000001d0: 3b17 5a3d 2b8e d6bd 390d f53d 99e4 45be
000001e0: 22dc 843d 565c ddbd 5004 ea3d 7df0 0e3e
000001f0: c3c1 16be 1e70 963d 2847 cb3d 2758 0c3e
00000200: 25dc 363e ea1c 21be 16e5 1dbe 4240 c13d
00000210: 8a1e 00be 63e0 e33d 990c 42be 27f1 04be
00000220: 0629 1c3e f27d 143d 4957 633e 0892 3d3b
00000230: 2b5e 44be 775e 293e 5a53 2b3d 783a 45be
00000240: 9892 8cbd 88d1 a9bb 5f5c 63bd 6ad8 73bd
00000250: 420f 3abe 1716 2ebe f41a 173e 1c31 7ebc
00000260: bd93 af3d 555f c33e 117d ba3d a188 4dbe
00000270: 66c1 0d3e 2a73 d8bd f400 5c3e f9c2 38be
00000280: 59fa 2d3e cd55 e63d 2a57 31be 73d6 913d
00000290: 01de 42be 2341 4abe 5ca1 cc3d d867 2c3e
000002a0: 629d dc3d e7dc ac3c b669 edbd 6e2d b2bd
000002b0: 2c8f 44be aaa3 833d 5553 99be 43a6 0ebe
000002c0: 6d29 d13d ccf1 0c3e 81b2 82be 64a7 d93c
000002d0: 2ded 583e b66e d73b ffe4 fc3d cab3 cfbd
000002e0: 77bb 52bd 3976 d7bd d7f4 463e afd0 1ebc
000002f0: ad34 a7bd 324a 2cbe 5631 59be 5a79 083e
00000300: 38c9 a2bd e3cc 7dbe dc6b 2b3e ee94 23be
00000310: 005b 713e 3cb4 06be 749a 98bd aac4 f2bd
00000320: cf21 1e3e 0b49 05be aeec b2bd 22f2 3cbe
00000330: 6b50 3fbe 6d1e ef3c 1c79 bd3d 73c4 0f3e
00000340: db8e 893d 2664 053e b49c 88be 6cdd 893d
00000350: 5d8a 06be 1c7a b4bd 507f d4bd 91ba 553c
00000360: a44a 6fbe 9177 7dba a578 0d3e ef39 373d
00000370: c091 65be f87c f23d 7689 41be 193b a83d
00000380: 5748 36be 37ef a03d 522f dcbd 8273 a33d
00000390: 7dc9 4ebe 7978 223e 833f 103e fdc4 983e
000003a0: 19fb 15be 2e91 113e 3d1f 323d c379 a73e
000003b0: e8a2 193e 25ca 1fbe efb4 18be 7b4c b2bd
000003c0: 142d 9f3d 60d6 373e 4766 323b 3a4a 31be
000003d0: 50c9 1a3e e7f5 46be 85f9 97be 0ee8 93bd
000003e0: e621 a6bc 5a09 703d 8aa4 b13c cd96 483e
000003f0: 333c 243e 0ebb 42be dad8 34be 6d31 bcbd
-0.2065898 0.092066444 -0.10704215 0.04318253 -0.006046274 -0.07590228 0.1410412 0.14151445
-0.18556012 -0.20944142 0.1602895 -0.05228294 0.12564903 0.04534991 -0.10337454 -0.14021759
0.09790249 0.017249908 0.10973466 0.104992546 -0.31078243 0.099760376 -0.23647699 0.2067379
0.16363548 0.118603304 -0.15760528 0.16148332 -0.081000105 0.13010964 0.12533723 -0.38604444
0.017347185 0.05158023 0.052361976 -0.35515562 -0.20687456 0.019488908 0.016003385 0.17688884
-0.258707 -0.23916426 -0.1573735 0.044055816 -0.3206401 -0.16333272 0.008951112 -0.06885165
-0.18186975 -0.17524697 0.15050015 -0.17224477 0.15730818 -0.3169209 -0.24031407 0.04152731
0.07293077 -0.08204245 0.056736097 -0.20669015 -0.17514661 -0.16285712 0.15747797 -0.005429465
0.20214929 -0.05677472 -0.07726249 0.1364514 0.08388098 0.103636414 0.02940294 0.11461399
0.107445605 0.06689451 0.0043157185 0.15817954 0.15208742 0.11391938 0.041571528 -0.20215316
-0.09891714 -0.1171535 -0.049884018 -0.12418149 0.15061155 -0.055419598 -0.12591021 -0.28036878
0.11983375 -0.13765022 -0.426807 0.14970115 0.18327993 -0.119834624 0.105482124 0.08351838
-0.13731281 -0.08225644 -0.40040907 -0.1736774 0.032168828 -0.014976012 -0.0744201 -0.13425407
-0.028569633 0.055112515 -0.19800946 -0.23586251 -0.051319707 0.033507757 0.15798506 0.10616928
-0.16274033 0.1431447 -0.2232123 -0.10867332 0.05324481 -0.10476335 0.11965413 -0.19325484
0.064872995 -0.10808627 0.11426604 0.13958926 -0.14722352 0.073456034 0.09925681 0.13705502
0.17857416 -0.15733686 -0.1541942 0.09436084 -0.1251165 0.11126783 -0.18950118 -0.12982617
0.15250024 0.036252923 0.22201265 0.0028926153 -0.19176547 0.16539942 0.041827537 -0.19260585
-0.06863898 -0.005182449 -0.055508014 -0.05953256 -0.18169883 -0.17000614 0.14756376 -0.015514638
0.08573101 0.3815867 0.09105886 -0.20071651 0.13843307 -0.10568841 0.21484739 -0.18043126
0.16990031 0.11246834 -0.17318407 0.07120981 -0.1903 -0.1975141 0.09991714 0.16836488
0.10772206 0.021101428 -0.115924284 -0.08700071 -0.1919524 0.06427701 -0.2994639 -0.13930611
0.102129795 0.13764113 -0.25526813 0.026569076 0.21184225 0.006574477 0.12348365 -0.10141714
-0.05144831 -0.10520596 0.19429336 -0.009693309 -0.08164344 -0.16825178 -0.21210226 0.13327542
-0.07948536 -0.2478519 0.16740364 -0.15974781 0.2356987 -0.13154691 -0.074513346 -0.11853917
0.15442584 -0.13016145 -0.08736549 -0.18451741 -0.18683021 0.029189313 0.092516154 0.14039783
0.06716701 0.13026485 -0.26682055 0.06731686 -0.13138719 -0.08812353 -0.103758454 0.013044969
-0.23368317 -0.0009669001 0.13815553 0.044732984 -0.2241888 0.11840242 -0.18900093 0.08214397
-0.17801033 0.078581266 -0.10751213 0.07981016 -0.20194049 0.15866269 0.14086728 0.2983779
-0.14646567 0.14215538 0.043486822 0.32710084 0.1500355 -0.15604456 -0.1491277 -0.08705994
0.0777227 0.17952871 0.0027221607 -0.17313471 0.15115857 -0.19429742 -0.29682556 -0.07221995
-0.020279836 0.05860267 0.021684904 0.19588776 0.16038589 -0.19016668 -0.17660847 -0.09189115
