Experiment-3/models/2D_model.pt (torch, 120811 bytes, 1 tensors)

weight1 f4 [3, 100, 100]
0	0x39e5240a	0.00043705135
1	0xba8bc099	-0.0010662257
2	0x39e920b2	0.00044465583
3	0xba65bc5f	-0.0008763726
4	0x3af445c5	0.0018636516
5	0xba37d9d4	-0.0007013355
6	0x3a2f6b3c	0.00066916994
7	0x3af95718	0.0019023148
8	0x3a94fb0d	0.0011366323
9	0xb869ee88	-5.577368e-05
10	0x3a9e52e4	0.0012079147
11	0xba9cc6af	-0.0011961068
12	0xb98b3a0e	-0.000265554
13	0xba8ac086	-0.0010585941
14	0xb8727350	-5.780469e-05
15	0xba084d80	-0.00051995367
16	0x38861528	6.3935586e-05
17	0x3940db2c	0.00018392195
18	0x3b03c211	0.0020104686
19	0xbac8c8e4	-0.0015318659
20	0xb9ed9908	-0.0004531818
21	0xba4cdf3e	-0.0007815248
22	0xbab80ff4	-0.001404284
23	0xba9c523c	-0.0011926363
24	0xba66bf7a	-0.0008802336
25	0xb9e67cd6	-0.0004396203
26	0x39f1bdc1	0.0004610848
27	0x39e34024	0.00043344602
28	0xba7e4c0c	-0.0009700663
29	0xba6d1f1f	-0.000904547
30	0xbb0b2f85	-0.002123804
31	0x3989642c	0.0002620531
32	0x3894b27c	7.090435e-05
33	0xba20fd5a	-0.0006141268
34	0xb94c69ec	-0.00019494415
35	0xbab6d1b6	-0.0013947997
36	0x3ade4cfd	0.00169602
37	0xba3b2cc1	-0.0007140153
38	0xbaf6194e	-0.0018775852
39	0xba1f20c3	-0.00060702505
40	0xba5fd30c	-0.00085382233
41	0x3a175d9f	0.00057741435
42	0x3b04c812	0.0020260853
43	0xbaa302a4	-0.00124367
44	0x394fc4b2	0.00019814333
45	0xbab1d673	-0.0013567939
46	0x390bfd76	0.00013350495
47	0x3a8ceadc	0.0010751146
48	0x3aa0d5bd	0.001227073
49	0x39abc966	0.00032765715
50	0xb92aadb0	-0.00016277167
51	0x3abee61e	0.001456443
52	0xb9f00e42	-0.0004578699
53	0x3b292ab4	0.0025812807
54	0xb9dbe810	-0.00041943835
55	0xba7badf8	-0.00096008135
56	0xbab2498a	-0.0013602239
57	0x3aa0c144	0.0012264629
58	0xb91e7976	-0.00015113302
59	0xb6ce81a0	-6.1543687e-06
60	0xba01ceeb	-0.00049517927
61	0xb9efa6c8	-0.00045709894
62	0x3b01349e	0.00197152
63	0xb8ed8dd0	-0.00011327455
64	0xb7addd80	-2.0726351e-05
65	0x3ac7e2dc	0.0015250104
66	0x398850dc	0.00026000186
67	0xb8add7f4	-8.289507e-05
68	0x38ab54a0	8.169678e-05
69	0x399fd337	0.0003048421
70	0xbb016e86	-0.0019749715
71	0x3930becb	0.00016855744
72	0x39acad6b	0.00032935603
73	0x36dc8ef0	6.573151e-06
74	0xba14ae51	-0.0005671727
75	0xb98d023f	-0.0002689529
76	0xbb43a596	-0.0029853336
77	0x3ab0729c	0.0013461891
78	0x38bf1738	9.1119146e-05
79	0xba9bdfe6	-0.0011892288
80	0xba6d234a	-0.0009046091
81	0x3930ecba	0.00016872855
82	0xb9f6a3e2	-0.0004704288
83	0xba89e930	-0.0010521766
84	0xba0a1e04	-0.0005268755
85	0xbb27815c	-0.0025559282
86	0xba6110fa	-0.00085855986
87	0xbad18667	-0.001598549
88	0xba9fefda	-0.0012202219
89	0xb83953a8	-4.4185348e-05
90	0xbb2347f0	-0.0024914704
91	0xb92596c8	-0.00015791797
92	0x3928308a	0.0001603981
93	0xb8ee7cb0	-0.00011371949
94	0xb927fb7f	-0.0001602005
95	0x3b2a28ec	0.0025964333
96	0xbaaa494d	-0.0012991816
97	0x373e12b0	1.13292335e-05
98	0x395dca48	0.00021151558
99	0x39143afa	0.0001413635
100	0x3f01fcda	0.50776446
101	0x3914e790	0.00014200644
102	0x3a4581e8	0.0007534311
103	0xb9dc6971	-0.0004204023
104	0x3f1632e4	0.586714
105	0xb9526caf	-0.00020067648
106	0x3f1741de	0.5908488
107	0x3f23d9dc	0.640043
108	0x3f1ce97e	0.6129378
109	0x3a1b0d0b	0.00059147243
110	0x3f1449f3	0.5792534
111	0x3926e820	0.00015917467
112	0x39c35da6	0.00037263072
113	0x3988f344	0.00026121188
114	0x3f16c3bb	0.5889241
115	0xb92b33c6	-0.00016327118
116	0xba514909	-0.00079836004
117	0xb852fae5	-5.0301565e-05
118	0x3eed6009	0.46362332
119	0xb899db98	-7.336511e-05
120	0x39cb97aa	0.00038832176
121	0xb8c6ab00	-9.473227e-05
122	0x3993c39e	0.0002818377
123	0x39de2c2e	0.00042376056
124	0xb977c4df	-0.00023629096
125	0x3f06cdba	0.52657664
126	0xb8a9a070	-8.088432e-05
127	0x3f13640f	0.5757455
128	0xb8dbedb0	-0.000104870065
129	0x37cb1880	2.4210894e-05
130	0xba4ba322	-0.0007768144
131	0x3f0e6538	0.556232
132	0xb84f4242	-4.9414353e-05
133	0x38925519	6.977673e-05
134	0xb8022180	-3.1025615e-05
135	0x397dc792	0.00024202306
136	0x3f111bff	0.56683344
137	0xba39d13a	-0.0007088367
138	0x38e0a43a	0.00010711742
139	0xba2a1d69	-0.0006489368
140	0xb92d47a6	-0.00016525257
141	0x3f0d8f9e	0.5529727
142	0x3f08d6ff	0.5345306
143	0x3a477224	0.0007608256
144	0xb996ac42	-0.00028738572
145	0x39dda823	0.00042277676
146	0x39f1ebd1	0.000461428
147	0x3f12c4d0	0.5733156
148	0x3f0fd585	0.5618518
149	0x3f1f66ac	0.6226604
150	0x3842fed8	4.6490546e-05
151	0x3f17e9ff	0.59341425
152	0xb93a7e57	-0.00017785408
153	0x3f00a5dc	0.5025308
154	0x389b79cf	7.4136646e-05
155	0xb9513a72	-0.00019953566
156	0xb9d295a7	-0.0004016582
157	0x3f1b8901	0.60755926
158	0xba1e7910	-0.00060452614
159	0xb96d3757	-0.00022622697
160	0xb9c63c27	-0.0003781032
161	0x39c5a800	0.00037699938
162	0x3f13c221	0.5771809
163	0x3f13e1f7	0.5776667
164	0x3f0e9311	0.55693156
165	0x3f0a3553	0.53987616
166	0x3edc5e58	0.4304073
167	0x3f14f342	0.5818368
168	0xb9ee3682	-0.0004543551
169	0x3a3b3e81	0.00071427977
170	0xba013887	-0.00049293827
171	0x372ee080	1.0423479e-05
172	0xb9afa384	-0.0003350043
173	0xba9075c1	-0.0011021422
174	0xb9dc3732	-0.00042002794
175	0x3f0b74e2	0.54475224
176	0x3960795e	0.00021407517
177	0x3f156891	0.5836268
178	0x38efde91	0.00011437864
179	0xb9811123	-0.00024617565
180	0x38ad9af8	8.278148e-05
181	0x3f1000a7	0.56250995
182	0x3f158ec1	0.5842095
183	0x396af56a	0.00022407403
184	0x390c569b	0.00013383703
185	0xb9d9b77f	-0.0004152618
186	0xba5e5778	-0.0008481662
187	0xba571b58	-0.00082056737
188	0xba259f39	-0.00063179765
189	0xb71c67a0	-9.322452e-06
190	0xb8d20570	-0.00010014593
191	0xb90bc012	-0.00013327625
192	0xb989ffc1	-0.00026321228
193	0xb94a5cc6	-0.00019298782
194	0x39b5a28f	0.00034644126
195	0x3ee0194f	0.4376931
196	0xb75862d0	-1.289761e-05
197	0xb95a1a34	-0.00020799862
198	0xb9014cb7	-0.00012330977
199	0xb9083ca0	-0.00012992555
200	0x3f323563	0.6961271
201	0xbcc59157	-0.024117155
202	0xbdd7187d	-0.10502718
203	0xbdbef1bb	-0.0932345
204	0x3f3ccc74	0.7374947
205	0xbde980c5	-0.11401514
206	0x3f54326a	0.82889426
207	0x3f4cc96c	0.79994845
208	0x3f34219f	0.703638
209	0xbdfe2ecf	-0.12411272
210	0x3f58e873	0.8472969
211	0xbdb03616	-0.08604066
212	0xbd986ab5	-0.07442228
213	0xbd233596	-0.039846025
214	0x3f4c0388	0.7969289
215	0xbe3c7dc3	-0.1840735
216	0xbe2538e5	-0.16134985
217	0xbdc0f205	-0.094211616
218	0x3f206ba4	0.62664247
219	0xbd9a8d22	-0.0754645
220	0xbd86833f	-0.06568002
221	0xbdc0319b	-0.093844615
222	0xbdc11e70	-0.094296336
223	0xbdfaca46	-0.12245612
224	0xbdd99287	-0.10623651
225	0x3f3b8698	0.7325225
226	0xbd7cd246	-0.06172397
227	0x3f48996f	0.7835912
228	0xbdcb4a84	-0.09926322
229	0xbdd39a53	-0.103321694
230	0xbdd2e971	-0.10298432
231	0x3f4c5b5b	0.798269
232	0xbe011378	-0.12605083
233	0xbddc8bdd	-0.10768864
234	0xbde08097	-0.109620266
235	0x38f20bba	0.000115416435
236	0x3f3a79e4	0.7284224
237	0xbdb1313d	-0.086519696
238	0xbd0fb596	-0.035085283
239	0xbde03002	-0.10946657
240	0xbe01b354	-0.12666065
241	0x3f40e70c	0.7535255
242	0x3f366e98	0.712625
243	0xb83d90a0	-4.5195804e-05
244	0xb979ac21	-0.00023810613
245	0xb9329647	-0.00017031386
246	0xb9d9f795	-0.00041573928
247	0x3f49dafa	0.78849757
248	0x3f45721c	0.7712724
249	0x3f5169f6	0.8180231
250	0x37a89c78	2.0100022e-05
251	0x3f420999	0.75795895
252	0xbdcfbd55	-0.10143534
253	0x3f2cda44	0.67520547
254	0xbdda84a9	-0.10669834
255	0xbddcb5d4	-0.107768685
