Experiment-3/models/H_V_block_MNIST.pt (torch, 407655 bytes, 2 tensors)

linear_1.weight f4 [128, 784]
0	0x39db49bf	0.0004182588
1	0x39d7e394	0.00041177555
2	0x39d8bfc1	0.00041341598
3	0x39db8a0a	0.00041873782
4	0x39db3cf6	0.00041816354
5	0x39db5a7d	0.00041838354
6	0x39df3d8e	0.00042579736
7	0x39dcab96	0.0004208951
8	0x39df205c	0.00042557984
9	0x39d7ff3b	0.00041198157
10	0x39d9489e	0.0004144357
11	0x39d9af37	0.0004152001
12	0x39dda3a9	0.0004227434
13	0x39db8f75	0.0004187782
14	0x39db39da	0.00041814038
15	0x39da4864	0.00041634135
16	0x39fab28c	0.00047816744
17	0x39fc566a	0.0004812957
18	0x39fa95fe	0.0004779547
19	0x39f5f69d	0.00046913783
20	0x39f446f7	0.0004659218
21	0x39f5ef93	0.00046908538
22	0x39fb401f	0.00047922225
23	0x39f57550	0.00046817446
24	0x39f252b8	0.00046219467
25	0x39f68288	0.0004701803
26	0x39f1a5dd	0.0004609068
27	0x39fa2856	0.00047713768
28	0x39f85551	0.00047365812
29	0x39fc0645	0.00048069857
30	0x39fbb65b	0.00048010316
31	0x39fa9b56	0.0004779945
32	0xba56ec40	-0.0008198656
33	0xba584dce	-0.000825134
34	0xba55c7db	-0.0008155086
35	0xba57940b	-0.0008223659
36	0xba51e9b1	-0.000800754
37	0xba4e3705	-0.0007866475
38	0xba49e804	-0.00077021145
39	0xba5410fa	-0.0008089688
40	0xba55eb21	-0.0008160342
41	0xba5528ea	-0.0008131402
42	0xba55cd84	-0.00081559294
43	0xba5c8e60	-0.00084135495
44	0xba58885c	-0.0008260065
45	0xba5a5088	-0.000832804
46	0xba554b4d	-0.0008136526
47	0xba55a1dc	-0.0008149424
48	0xba9b53bd	-0.0011850517
49	0xbaa1d11e	-0.0012345647
50	0xba9839f6	-0.0011613953
51	0xba99f1e6	-0.0011745065
52	0xba9a2ed9	-0.0011763229
53	0xba9a65a8	-0.0011779564
54	0xba9a60c0	-0.0011778101
55	0xba9bf795	-0.0011899347
56	0xba9abe8b	-0.0011806054
57	0xba9a2ac9	-0.0011762019
58	0xba9b5e2a	-0.0011853625
59	0xba9b0cac	-0.0011829338
60	0xba9ad661	-0.0011813157
61	0xba9b694b	-0.0011856941
62	0xba9bd1f7	-0.0011888136
63	0xba9b2bb2	-0.0011838584
64	0x3c62c112	0.013839977
65	0x3c62cbf1	0.013842569
66	0x3c6326ad	0.0138642015
67	0x3c6235d3	0.013806778
68	0x3c64911e	0.013950614
69	0x3c63e9bc	0.013910707
70	0x3c639d32	0.013892459
71	0x3c63e848	0.013910361
72	0x3c620c58	0.013796888
73	0x3c623f65	0.01380906
74	0x3c62ad3b	0.013835247
75	0x3c626f78	0.0138205215
76	0x3c628748	0.013826199
77	0x3c63bb19	0.013899588
78	0x3c625cb5	0.013816048
79	0x3c628ada	0.01382705
80	0x3c304b78	0.010760181
81	0x3c305bb2	0.010764049
82	0x3c3057f1	0.010763154
83	0x3c3033af	0.01075451
84	0x3c3061b3	0.010765481
85	0x3c304435	0.010758449
86	0x3c303a7a	0.010756129
87	0x3c3039d2	0.010755973
88	0x3c30608b	0.010765205
89	0x3c30578b	0.010763059
90	0x3c3045bf	0.010758816
91	0x3c30e0aa	0.010795752
92	0x3c32378d	0.010877502
93	0x3c33a28e	0.010964049
94	0x3c3239fb	0.010878081
95	0x3c33481f	0.010942488
96	0x3bbf15bb	0.005831448
97	0x3bbb1dae	0.005710325
98	0x3bb5d4c8	0.005549047
99	0x3bbd8c40	0.0057845414
100	0x3bc5e0fc	0.006038783
101	0x3baf47d3	0.0053491383
102	0x3bad2082	0.0052834162
103	0x3baac2f2	0.0052112276
104	0x3ba39f69	0.0049933684
105	0x3ba6b30c	0.005087262
106	0x3ba30781	0.00497526
107	0x3ba80dce	0.005128599
108	0x3ba71cba	0.00509986
109	0x3ba8838b	0.0051426343
110	0x3ba7d067	0.005121279
111	0x3ba74e8c	0.005105799
112	0xbc8013b3	-0.015634393
113	0xbc800e16	-0.015631717
114	0xbc801afb	-0.015637865
115	0xbc804cd5	-0.015661636
116	0xbc80256c	-0.015642844
117	0xbc7fd5b1	-0.015614913
118	0xbc802f03	-0.015647417
119	0xbc7fcb3b	-0.015612419
120	0xbc7ea1ff	-0.015541553
121	0xbc793135	-0.015209486
122	0xbc774685	-0.015092497
123	0x3a7c4ff2	0.000962495
124	0x3d2c3c74	0.04204984
125	0x3d9494df	0.072549574
126	0x3cede82b	0.02904137
127	0x3d0dad91	0.034589354
128	0x3d6e0dc1	0.058118585
129	0xba2ef43e	-0.0006673968
130	0xbc4aff9e	-0.012390045
131	0xbc4b5701	-0.01241088
132	0xbc4f0c36	-0.012637189
133	0xbc546e0f	-0.012965693
134	0xbc50d267	-0.012745476
135	0xbc4ec473	-0.012620079
136	0xbc4e7296	-0.012600562
137	0xbc4cf778	-0.012510173
138	0xbc4e95d9	-0.012608969
139	0xbc4ec476	-0.012620082
140	0xbc4ebbc4	-0.012618009
141	0xbc4ecdf4	-0.012622345
142	0xbc4ec3ac	-0.012619894
143	0xbc4b94ac	-0.012425583
144	0xbc58cee2	-0.013232918
145	0xbc591438	-0.013249449
146	0xbc581093	-0.013187545
147	0xbc55a2e6	-0.013039326
148	0xbc553162	-0.013012262
149	0x3d3125d5	0.04324897
150	0x3d37bbc6	0.04485681
151	0x3ca9d52b	0.02073153
152	0x3ba2fd03	0.004974009
153	0xbc5c659f	-0.013451963
154	0xbc5f8ae4	-0.013643954
155	0x3ca53d8a	0.020170946
156	0x3d40d6b2	0.04707975
157	0x3ca6e734	0.020373918
158	0x3c1c7b31	0.0095508555
159	0xbc56c6bc	-0.013108905
160	0xbc33e4e8	-0.0109798685
161	0xbc393a18	-0.011305355
162	0xbc39498b	-0.011309038
163	0xbc369fa1	-0.011146457
164	0xbc391648	-0.011296816
165	0xbc378e73	-0.011203396
166	0xbc391452	-0.011296349
167	0xbc388531	-0.011262224
168	0xbc388167	-0.011261321
169	0xbc38b505	-0.011273627
170	0xbc38e1ed	-0.011284334
171	0xbc37c71b	-0.011216904
172	0xbc36b3dd	-0.011151281
173	0xbc35810d	-0.011078131
174	0xbc01e1db	-0.007927383
175	0x3cb59138	0.022163972
176	0x3c1cc43a	0.009568268
177	0x3d120247	0.035646703
178	0x3d143d03	0.036190998
179	0xbbf7b5b2	-0.0075595016
180	0xbc32b015	-0.010906239
181	0xbc02b377	-0.007977358
182	0xbc008b2c	-0.007845681
183	0xbc010b69	-0.007876256
184	0xbbddc60e	-0.0067679947
185	0xbbdb50cf	-0.0066929827
186	0x3c3a4c44	0.011370722
187	0x3c252151	0.010078744
188	0x3cac642e	0.021043863
189	0xbbc149b4	-0.0058986787
190	0xbbf09d40	-0.0073429644
191	0xbbeef440	-0.0072923005
192	0x3c69664b	0.01424558
193	0x3c66c38c	0.014084708
194	0x3c66e7ea	0.014093379
195	0x3c699cf1	0.014258609
196	0x3c6b7b59	0.01437267
197	0x3c6b84a6	0.014374888
198	0x3c6b9ed0	0.014381126
199	0x3c6c5a73	0.014425862
200	0x3c6c2977	0.014414183
201	0x3c86955e	0.016428646
202	0x3c83000c	0.015991233
203	0x3c80e5e7	0.015734626
204	0x3c79ee1e	0.0152545255
205	0x3c6c788b	0.014433037
206	0x3c474059	0.012161338
207	0x3c084944	0.008318249
208	0xbcdf3417	-0.027246518
209	0xbcc5981c	-0.024120383
210	0xbc4cabd2	-0.012492137
211	0xbc4ac21e	-0.012375383
212	0xbc2c3b82	-0.010512235
213	0xbc253cec	-0.010085326
214	0xbc1c135c	-0.0095261
215	0x3cc566f8	0.02409695
216	0x3cc2edfa	0.023795117
217	0xbc201aa7	-0.009771979
218	0xbc249574	-0.010045398
219	0xbc260887	-0.010133869
220	0xbc2622a5	-0.010140096
221	0xbc256694	-0.010095257
222	0xbc27cdf7	-0.010241977
223	0xbc223eb5	-0.009902646
224	0x3cdfa950	0.027302414
225	0x3cdf9d77	0.027296765
226	0x3ce08917	0.02740912
227	0x3ce00992	0.027348313
228	0x3ce49b2a	0.02790602
229	0x3ce8c84a	0.028415818
230	0x3ce66763	0.02812547
231	0x3ce5e0dd	0.028061325
232	0x3ccdee0e	0.025137927
233	0x3c0c5932	0.008566188
234	0x3c929fc1	0.017898442
235	0xbb909589	-0.004412357
236	0xbbe00ed8	-0.006837707
237	0x393e7934	0.00018164964
238	0x3c8db00d	0.017295862
239	0x3cdb6074	0.02677939
240	0xbc00de62	-0.00786552
241	0xbbfa5820	-0.0076399
242	0xbbf36dba	-0.007428852
243	0x3c710baf	0.014712258
244	0xbc000da5	-0.007815753
245	0xbbff2b35	-0.007787133
246	0xbbffe0cc	-0.0078087803
247	0xbc0162d9	-0.007897102
248	0xbc01dbc5	-0.007925932
249	0xbbffb4ce	-0.007803536
250	0xbbfdc721	-0.0077446853
251	0xbbfe3cbc	-0.007758705
252	0xbbfe628d	-0.007763213
253	0xbbfe2410	-0.007755764
254	0xbbfbf5d0	-0.0076892152
255	0xbbfd6454	-0.0077329073

linear_2.weight f4 [10, 128]
0	0xbeb1eaab	-0.3474935
1	0x3e0a345b	0.13496535
2	0xbdc9dde1	-0.09856773
3	0xbde9fa2b	-0.11424669
4	0x3d20fd50	0.039304078
5	0xbe06357b	-0.13106339
6	0x3e3d8c0e	0.18510458
7	0x3e782037	0.24231039
8	0xbe6364b7	-0.22206388
9	0xbeb070c7	-0.34461042
10	0x3e8ba0b1	0.27271035
11	0xbdcc9463	-0.0998924
12	0x3e3e4ac1	0.18583204
13	0xbd70fac5	-0.058832902
14	0xbe0ed6f5	-0.13949187
15	0xbe135a2a	-0.14389864
16	0x3e2a6c97	0.16642986
17	0x3c5830a6	0.013195192
18	0x3e318d41	0.1733904
19	0x3e188206	0.1489335
20	0xbe877bdb	-0.26461682
21	0x3e1a03f7	0.15040575
22	0xbe91adba	-0.28452855
23	0xbc9cb02b	-0.019126972
24	0x3e86c691	0.2632337
25	0x3e4793ae	0.19489929
26	0xbe374eda	-0.17901173
27	0x3e759f42	0.23986533
28	0xbe7f77b5	-0.24948008
29	0x3e4a6548	0.19765198
30	0x3e3d500d	0.18487568
31	0xbf0f942f	-0.56085485
32	0xbd5aa3fd	-0.053379048
33	0xbdb1f1e7	-0.08688717
34	0x3d911395	0.07083813
35	0xbeda5e30	-0.42649984
36	0xbe79f496	-0.24409708
37	0x3d7c41d0	0.0615862
38	0xbe1ee253	-0.15516023
39	0x3e848c92	0.25888497
40	0xbed7c369	-0.42141274
41	0xbe760965	-0.24027021
42	0xbe64b7ca	-0.22335735
43	0x3d8b3c3e	0.067986
44	0xbed254f2	-0.41080433
45	0xbe8c5795	-0.2741057
46	0x3d6b98d2	0.057518788
47	0xbdc13fd7	-0.094360046
48	0xbe6e1f91	-0.23254229
49	0xbe47fb2c	-0.19529408
50	0x3e65dacc	0.22446746
51	0xbe59d514	-0.21272689
52	0x3e3ffd3d	0.18748946
53	0xbe8f4f71	-0.27990296
54	0xbe908ccb	-0.28232417
55	0x3cf67512	0.03008512
56	0x3e07e9ec	0.13272828
57	0xbdea7581	-0.11448193
58	0x3e0560c9	0.13025202
59	0xbe8f363c	-0.27971065
60	0xbe51a691	-0.20473696
61	0xbe34ffbf	-0.17675684
62	0x3e4b667f	0.19863318
63	0xbd60c2ce	-0.05487328
64	0x3e7cc0c6	0.24682912
65	0xbcc37ecf	-0.023864178
66	0xbd9cd8e9	-0.0765856
67	0x3df94a78	0.12172407
68	0x3e3959f2	0.18100718
69	0x3e207d07	0.15672694
70	0x3d93e0fe	0.07220648
71	0xbccff42d	-0.025384987
72	0x3e1401a8	0.14453757
73	0x3dd5b4bf	0.10434865
74	0x3ca5639a	0.020189095
75	0x3e4b0879	0.19827451
76	0x3e2a8f70	0.1665628
77	0x3dfeaf27	0.124357514
78	0x3d8d5993	0.069018506
79	0xbeb4012f	-0.35157153
80	0xbdb70f23	-0.08938434
81	0xbe440614	-0.19142944
82	0xbd9c2f67	-0.07626229
83	0xbe04f758	-0.12984979
84	0x3e5ab851	0.21359374
85	0xbd3b1bf2	-0.045680948
86	0xbe23871c	-0.15969509
87	0xbe83cd8e	-0.25742763
88	0x3e316f3e	0.17327592
89	0xbe201727	-0.15633832
90	0xbe931371	-0.2872577
91	0x3e46ea6b	0.19425361
92	0x3e45a7eb	0.19302337
93	0xbe28def0	-0.16491294
94	0x3e0acc72	0.13554552
95	0x3df9c29f	0.12195324
96	0xbe4f1da2	-0.20226148
97	0xbdaefbe6	-0.085441396
98	0xbf0b0c05	-0.54315215
99	0xbeb0c9f8	-0.3452909
100	0x3d0e24d6	0.0347031
101	0xbe4b3681	-0.1984501
102	0xbdec5d8c	-0.1154128
103	0xbde9832d	-0.11401973
104	0xbcfa3708	-0.03054382
105	0x3db39307	0.087682776
106	0xbe279a3c	-0.1636743
107	0xbecdaa3e	-0.40168947
108	0xbd81ec60	-0.06343913
109	0x3b30c1f8	0.0026971083
110	0x3e5e6ec3	0.2172194
111	0x3e2e448a	0.17018333
112	0xbe773886	-0.24142656
113	0x3e3f1918	0.18661916
114	0xbed36b68	-0.41292882
115	0xbddb3fcc	-0.10705528
116	0x3da50740	0.080580235
117	0xbd7ccaf2	-0.06171698
118	0x3e1f15a1	0.15535595
119	0xbe3c7b15	-0.18406327
120	0x3db30441	0.08741046
121	0xbeeba9e1	-0.46028045
122	0x3e155c95	0.14586098
123	0x3e3a64e8	0.18202555
124	0xbe5fec12	-0.21867397
125	0x3e1410f7	0.14459597
126	0x3e48633d	0.19569106
127	0x3e3f066c	0.18654794
128	0x3e2e09ac	0.16995877
129	0xbeaa2b5c	-0.33236206
130	0xbeb3e20c	-0.35133398
131	0x3e23558e	0.15950605
132	0xbea63849	-0.32464817
133	0x3e284679	0.16433133
134	0xbe8ecc4c	-0.2789024
135	0xbe7aa118	-0.24475515
136	0x3e2861c6	0.16443548
137	0xbe897f31	-0.26854852
138	0x3e128655	0.14309056
139	0xbde69c23	-0.112602495
140	0xbeb16bed	-0.34652653
141	0x3e771bfc	0.24131769
142	0x3d742039	0.059601042
143	0xbebe76bb	-0.3719996
144	0xbe32f3cd	-0.17475815
145	0xbdb7a155	-0.089663185
146	0xbdb1ede0	-0.08687949
147	0xbe3c50a2	-0.18390134
148	0xbe6438f7	-0.22287355
149	0xbe88b519	-0.26700667
150	0x3e8bac7a	0.27280027
151	0xbdce637f	-0.10077571
152	0x3d95b5bb	0.07310053
153	0x3ee418cc	0.4455017
154	0x3e17d7dc	0.14828438
155	0xbe8c1e87	-0.2736704
156	0x3e7053f2	0.23469523
157	0xbe6208ff	-0.22073744
158	0x3e242b14	0.16032058
159	0xbe4754a5	-0.19465883
160	0x3e77d08f	0.24200653
161	0x3e588a21	0.21146442
162	0xbe8375f9	-0.25675943
163	0x3dfb5cee	0.12273584
164	0xbe9f7421	-0.31143287
165	0xbe893170	-0.2679553
166	0x3e411a0b	0.18857591
167	0x3df213b1	0.11820162
168	0x3e33a39d	0.17542882
169	0x3d89131d	0.06693099
170	0xbe18dae3	-0.14927249
171	0xbe2fec6b	-0.1718003
172	0xbec9271f	-0.3928766
173	0x3da41444	0.08011678
174	0xbebafdf1	-0.36521867
175	0xbe5abb47	-0.21360503
176	0x3e1903d7	0.14942871
177	0x3e0a0eee	0.13482258
178	0xbea6729c	-0.32509315
179	0x3d7a7833	0.061149787
180	0x3e561f85	0.20910461
181	0x3d981d1a	0.07427426
182	0x3e387c9f	0.18016289
183	0xbe3373ab	-0.17524593
184	0xbe6321d2	-0.2218087
185	0xbdcabd89	-0.09899432
186	0x3e8d5485	0.27603546
187	0x3d04dc65	0.032436747
188	0xbe8c92e7	-0.27455828
189	0xbe525201	-0.20539095
190	0xbe1fb945	-0.15598018
191	0x3e463bb0	0.19358706
192	0xbe2a8a45	-0.16654308
193	0xbe8a0bd7	-0.26962158
194	0x3e5e190a	0.21689239
195	0xbe2e3d5e	-0.17015597
196	0x3e64af22	0.22332433
197	0xbe2884fc	-0.1645698
198	0xbe3cff70	-0.18456817
199	0xbe1f48f6	-0.15555176
200	0x3d9138de	0.07090925
201	0xbe09cafc	-0.13456339
202	0xbe4ad9c6	-0.19809636
203	0xbe49af37	-0.19695745
204	0xbe860fdf	-0.26183984
205	0x3ce9c19a	0.0285347
206	0x3e0c811c	0.13721126
207	0x3e562493	0.2091239
208	0x3dc6abde	0.0970075
209	0x3e1f525c	0.15558761
210	0xbe8fd928	-0.28095365
211	0x3e1138e9	0.14181866
212	0xbe6ae54a	-0.2293903
213	0xbe41911d	-0.18903013
214	0xbe085b04	-0.1331597
215	0x3ddbee4c	0.10738811
216	0xbe7cf3fb	-0.24702446
217	0xbe529e15	-0.20568116
218	0x3e52a2ed	0.20569964
219	0x3d4e5101	0.05037022
220	0xbe8af42b	-0.2713941
221	0x3e01624c	0.12635154
222	0xbe87128d	-0.2638134
223	0x3dd5877b	0.104262315
224	0xbe2bc97e	-0.16776082
225	0x3db34b74	0.08754626
226	0xbd527be5	-0.051387686
227	0x3e25f26c	0.16205758
228	0xbe55660f	-0.20839714
229	0x3e3a55fd	0.18196864
230	0x3e592d69	0.21208729
231	0x3eba94ad	0.36441556
232	0xbe0018e7	-0.125095
233	0x3e47bb56	0.19505057
234	0x3dc20a89	0.09474666
235	0x3ef2f4ae	0.474523
236	0x3e4720f5	0.19446166
237	0xbe533b58	-0.20628107
238	0xbe57cf49	-0.21075167
239	0xbdffe86f	-0.12495505
240	0x3e295952	0.16537979
241	0x3e4ce911	0.20010783
242	0x3cfa4ca2	0.03055412
243	0xbe5678f7	-0.20944582
244	0x3e32786a	0.17428747
245	0xbe49d061	-0.19708396
246	0xbeb21ee4	-0.34789193
247	0xbde1e3c4	-0.11029771
248	0xbe3ee8cf	-0.18643497
249	0x3e53af7e	0.20672414
250	0xbbeeaca1	-0.0072837626
251	0x3e5b0535	0.21388705
252	0x3e5c43ce	0.2151024
253	0xbe89b176	-0.26893204
254	0xbe552526	-0.20814952
255	0xbe425047	-0.18975936
