Experiment-3/mnist_2D/models/2D_mnist_cnn_enlarged.pt (torch, 32423 bytes, 2 tensors)

conv1.weight f4 [10, 1, 28, 28]
00000000: e917 84bd ad1e 523b 22ac 043d b93e e93c
00000010: abbd 52bc 4b00 1dbc d4b7 ba3c 04a8 b3bc
00000020: 643f b5bb 4617 ac3b 56c0 4abb aded 363b
00000030: 0e70 c03c f935 4cbb d84b 3c3c 5fcb 0fbc
00000040: 3794 acbb 6461 c13c d331 683c 3da2 233b
00000050: 52e0 b7bb ff65 0c3c ef8a 39bc b4e6 963c
00000060: 1622 92bb 9b99 223c 442f 20bd d956 4ebc
00000070: 6365 78bb 4650 b8bc 8c9a af3c dbba 60bc
00000080: f380 863c 8e0e bf3c a656 903c 9daa 953c
00000090: 36cb 69bc e12d e6ba b6fd 263c 8ac3 74bc
000000a0: 20a3 39bc 375b 57bc 0c5e 493c 6ead a13c
000000b0: 49e0 16bc bfab ddba 629d 8f38 bafd 483a
000000c0: f146 3f3c 1a5a af3b 0e62 543c 5911 5abc
000000d0: cae8 79bc d6e3 ffbb 9829 c2bc 5a2c 22bd
000000e0: 3eb2 753c 9837 b13b 7245 2fbc e252 c6bc
000000f0: 2ec6 8cbc 84d8 5abc c5b9 23bb 1d97 6fbb
00000100: 66e2 21bc 5f00 563c 25ae c4bb 5681 e43c
00000110: f29e f4bc 6fd5 ed3c 293f fdbb 8afc 1cbc
00000120: b422 fa39 c66c 283c d455 fd3b 3b82 963c
00000130: 1633 7c3c f243 8bba 802f 033a 96d3 58bc
00000140: 4f9b 103d 7300 8dbc 7567 e53c bbf6 333c
00000150: e8c5 b13b 8066 313b c79a 053b 7c98 433c
00000160: 99a5 1c3c 6bf9 bf3c 88f1 a03c d69b 90bc
00000170: 349c 053c 88dd 2d3c 85c7 41bb 63a5 6ebc
00000180: 03f7 d33c 2f4d a2bc 52f4 8c3c ea7c 923c
00000190: b01a abbb a931 9fbc 3540 bd3c 3bf3 61bc
000001a0: e1e9 133c 3a72 91bb c557 743c d228 193c
000001b0: 929d c5bb f8d6 9bba 6f01 07bb 52fe 7cbc
000001c0: 7d08 0e3c 3882 4cbc bbf3 303c f802 a53b
000001d0: 6430 38bc f451 2fbc 8a50 12ba f610 e3bc
000001e0: cb86 dd3c 4ffd 0a3c 1d15 93bc 98b1 543b
000001f0: 3a16 c7bb 24a7 f83a bc3b 7c3c 82da 23bb
00000200: f684 06bc 1cd5 a43c bc47 94b9 8dd8 d4bb
00000210: 374d c33c be16 be3c 1fd4 83bc dc3d 22bc
00000220: 3ec7 ac3c 8de5 26bc a060 0d3c d993 54bb
00000230: 4110 8abc 6d13 203b c081 b33b f894 bd3b
00000240: df65 ff3c 51b2 b1bc f644 c93b 539b 893c
00000250: 5570 b13c f11f d3bc 9589 6d3c d5e4 563c
00000260: f2b2 3cb9 0d0a 563c c7db 21bb 8f54 1dbc
00000270: f23c b53c e360 88bc a9ee 1bbc 49f1 2a3c
00000280: 674b c7bb d00c cfbb 1ff3 aa3c 3d1d 833c
00000290: abbb 56bb d13d 63bc 8cdd 463b 2d9d be3c
000002a0: 131b 7fbc f2e9 123c 9ee4 debb c756 07bc
000002b0: 9581 a7bc 9e38 e0bc 397a f83c 63bb 90bc
000002c0: c522 77bc dc9c a53c dc86 46bb a418 973c
000002d0: febd 75bc bc1d bbbc 7dfe 063d 4f44 d4bc
000002e0: c899 3f3b 141a 43bb 0602 b73c 6eb2 f53a
000002f0: 4d6e 333c 560c 69bc 6247 783c 06d0 fe3b
00000300: 7228 d0ba 14be 103c f7d9 503c 266d 71bd
00000310: 4eeb 00bc 1009 0fbd b8d4 e9bc 828f a839
00000320: 8a35 a83b fa14 23bc 52ea 033b 6133 fc3c
00000330: 455f b4bb 0c49 b9b9 e063 04bc 90de a53b
00000340: 2d5c e1b9 51a9 763c 8b46 81bc 21ea 2d3c
00000350: dc4c 873c 1813 87bc dd40 80bc e580 903b
00000360: 3bbe 3e3c 9d27 6b3b 5c94 1cbc 800e a83c
00000370: 5553 813b f532 f8bb 6339 86bc b400 42bd
00000380: c5c3 37bd 739a 383c c1d6 83bc 7bf3 9e3c
00000390: 20c6 eabb 8a2a 1fbc 1bff 213b 0402 cdbc
000003a0: c123 923c 7e71 413c c0c9 d0bb 63d3 53bc
000003b0: ed30 153c edd1 e1bb 1ac1 77bb 8106 75bb
000003c0: e011 40bb dfc8 debb f715 0abc d4c7 af3b
000003d0: 94d0 72bb 821c 0a3c 632b 9cbc d386 8e3c
000003e0: 03bb 183c 5854 aa3b e888 4fbc a658 413b
000003f0: 83e6 fbbc 06c8 643c 3fd9 c6ba b3a0 08bc
-0.06449873 0.0032061741 0.03239072 0.028472291 -0.012862603 -0.009582589 0.022792734 -0.021930702
-0.0055312384 0.005251798 -0.0030937395 0.0027912662 0.023490932 -0.00311601 0.011492692 -0.008776515
-0.005266692 0.02360601 0.014172035 0.0024968528 -0.005611458 0.00856924 -0.011324628 0.018420555
-0.0044596298 0.009924318 -0.039107576 -0.012593948 -0.0037902228 -0.022499215 0.021435998 -0.013716425
0.01641891 0.02332237 0.017619442 0.018269831 -0.014269641 -0.001756128 0.010192325 -0.014939198
-0.011330396 -0.013144306 0.012290489 0.019736018 -0.009208747 -0.0016912146 6.848086e-05 0.0007667203
0.011674629 0.005351317 0.012962831 -0.0133098 -0.015253255 -0.0078091426 -0.023701474 -0.03959308
0.0149961095 0.0054082386 -0.010697709 -0.024209443 -0.017184343 -0.013357285 -0.0024982553 -0.0036558576
-0.009880638 0.013061612 -0.006002205 0.027893703 -0.029860947 0.029032437 -0.0077284765 -0.009581694
0.00047709572 0.01027984 0.007731179 0.018372646 0.015393039 -0.0010625108 0.00050043315 -0.01323404
0.035304364 -0.017212128 0.028003434 0.010984118 0.0054252036 0.0027069151 0.0020386444 0.011938211
0.009560966 0.023434361 0.019646421 -0.017652433 0.0081549175 0.010611899 -0.0029568386 -0.014565798
0.02587462 -0.019812195 0.017206345 0.01788183 -0.0052216873 -0.01943286 0.023101905 -0.013790901
0.009027929 -0.0044386657 0.014913504 0.009348111 -0.0060307467 -0.0011889627 -0.002060022 -0.015441494
0.008669016 -0.012482218 0.010800297 0.0050357543 -0.011242006 -0.0107006915 -0.0005581459 -0.027718049
0.027041813 0.008483245 -0.017954404 0.0032454487 -0.0060756477 0.001897071 0.015395101 -0.0025002067
-0.008210411 0.02012115 -0.00028282206 -0.0064955414 0.02384053 0.023204204 -0.016092358 -0.009902444
0.0210911 -0.010186565 0.008628994 -0.0032436757 -0.016853454 0.0024425641 0.005478114 0.0057855807
0.031176506 -0.021691473 0.006142254 0.016797697 0.02166001 -0.025772067 0.014498134 0.013116081
-0.0001799574 0.01306392 -0.0024697648 -0.00960268 0.022123788 -0.016647762 -0.00951735 0.010433503
-0.0060819867 -0.006318666 0.020867882 0.016005153 -0.0032765667 -0.013869719 0.0030344455 0.023268307
-0.01557042 0.00896691 -0.0068021556 -0.008260435 -0.020447532 -0.027370747 0.030331718 -0.017667478
-0.015083973 0.020216398 -0.0030292785 0.018444367 -0.014998911 -0.022841327 0.032957543 -0.025911478
0.0029235948 -0.0029770182 0.022339832 0.0018745193 0.010951591 -0.0142241325 0.015153738 0.007776263
-0.0015881194 0.008834381 0.012747279 -0.058941983 -0.007868601 -0.034920752 -0.028543815 0.0003215038
0.0051333355 -0.009953732 0.002012868 0.030786218 -0.005504521 -0.00035340374 -0.008080453 0.005061932
-0.0004298402 0.015055017 -0.015780708 0.010614903 0.016516142 -0.016488597 -0.01565593 0.0044098967
0.011642034 0.0035881766 -0.009556856 0.020514727 0.0039467015 -0.007574434 -0.016384786 -0.04736395
-0.044864435 0.011267292 -0.016093614 0.01940321 -0.0071647316 -0.009714732 0.0024718705 -0.025025375
0.017839314 0.011806844 -0.0063717067 -0.0129288165 0.009105903 -0.00689148 -0.0037804306 -0.003738791
-0.002930753 -0.006798848 -0.008428088 0.0053643975 -0.0037050592 0.008429648 -0.019063657 0.017398274
0.009321931 0.005198043 -0.012666918 0.0029502301 -0.030749565 0.013963705 -0.0015170946 -0.008339095

conv1.bias f4 [10]
00000000: 5e93 71bd 0623 403d 8ca9 e73c e7f0 4abd
00000010: 56c7 f5bc 5223 893d 2662 12bc 6672 b4bb
00000020: d4c5 a9bd f260 413c
-0.05897843 0.0469084 0.028279088 -0.04954615 -0.030002277 0.0669619 -0.008934533 -0.0055068014
-0.08289686 0.011802899
