Experiment-3/mnist_2D/models/baseline_threelayer.pt (torch, 22943 bytes, 4 tensors)

conv_layers.0.weight f4 [1, 1, 4, 4]
-0.06414107 -0.13177134 0.33328152 -0.10515263 -0.029290957 0.18006447 0.09516663 0.15080072
0.16956115 0.12261437 0.27541152 0.09862333 0.02665219 0.2427902 0.23056518 0.21349311
00000000: 655c 83bd 11ef 06be e0a3 aa3e 435a d7bd
00000010: 97f3 efbc d262 383e b9e6 c23d 816b 1a3e
00000020: 70a1 2d3e 3e1d fb3d bd02 8d3e 07fb c93d
00000030: b255 da3c ff9d 783e 4719 6c3e f09d 5a3e

conv_layers.2.weight f4 [1, 1, 4, 4]
0.13036907 0.120231345 0.006452611 0.30231288 0.10088181 0.29840732 -0.044039432 0.124247305
0.30938107 -0.034234505 0.20342283 0.010114658 0.28734985 0.30947387 0.2176232 0.057425633
00000000: 787f 053e da3b f63d 6d70 d33b c1c8 9a3e
00000010: 1f9b ce3d d8c8 983e b162 34bd 5f75 fe3d
00000020: 3267 9e3e 7b39 0cbd 134e 503e f3b7 253c
00000030: 851f 933e 5c73 9e3e 9ed8 5e3e 2437 6b3d

fc_layers.0.weight f4 [10, 529]
-0.03829663 -0.0061171367 -0.040250257 -0.08041826 -0.08911868 -0.06364824 -0.022393921 -0.04256817
-0.09169746 -0.072549984 -0.07315998 -0.09686671 -0.079404406 -0.10032399 -0.10381745 -0.13509193
-0.1428264 -0.107764706 -0.09738163 -0.099531256 -0.016462028 -0.01872659 -0.03275612 -0.047658995
-0.051391684 -0.080976084 -0.07385466 -0.07996089 -0.07833703 -0.019665463 -0.05113708 -0.03840363
-0.11055403 -0.034650825 -0.0936511 -0.1053755 -0.100893036 -0.07918265 -0.096601725 -0.08583448
-0.08274883 -0.10504842 -0.094579905 -0.10576323 -0.027576651 -0.0957263 0.029056195 -0.008062888
-0.023687601 -0.070317775 -0.074244596 -0.059265222 -0.045003492 -0.03196052 -0.032388248 -0.0625336
-0.02074022 -0.012732457 -0.027219879 -0.046743535 -0.0020890026 -0.07568434 -0.055046603 -0.049224023
-0.052401908 -0.055099193 -0.02624863 -0.11079799 -0.114986375 -0.03981689 -0.040220622 -0.07734068
-0.09123255 -0.071824595 -0.020331362 -0.042061053 -0.034021758 -0.049791303 0.018428426 0.04635473
0.038538903 0.020158783 0.046232186 0.00088351656 0.053071525 -0.008250864 -0.048828896 -0.014962217
-0.028773587 -0.06648001 -0.09184811 -0.20806338 -0.07679017 -0.021464383 -0.11001272 -0.09126768
-0.0028420214 0.0001633018 -0.061378036 -0.069355786 0.0005458072 -0.012293475 0.033996362 0.040687677
0.022131154 0.07679852 0.083596356 0.07678936 0.0733267 -0.026256654 0.042807773 0.027769854
-0.008405021 -0.16159075 -0.16063286 0.037968677 -0.06434249 -0.07942186 -0.06706926 -0.07283078
-0.020816196 -0.08198251 -0.06511082 0.0022133654 0.00011327221 0.013470897 0.05576438 0.05330133
0.03384832 0.040776916 0.054369096 0.0899524 0.02811073 0.019555274 0.043732226 -0.010052515
-0.10695301 -0.24050589 0.04300562 -0.09272923 -0.13127634 -0.056193452 -0.054558396 -0.014057064
-0.065519124 -0.057354644 0.033702277 -0.03747325 0.0048940564 0.0058722342 0.055504043 0.05371618
0.093394436 0.06429849 0.09729911 0.04738292 0.0059489035 0.017012956 0.031768996 -0.08896647
-0.1785914 -0.016491547 -0.06307545 -0.09871238 -0.06682622 -0.07808471 -0.0494691 0.0074011264
-0.051901247 -0.036363427 -0.03187556 0.03187476 0.055137392 0.041481555 -0.0005540375 0.056504827
0.08279409 0.03641724 0.014419932 0.028021807 0.055123072 0.04909847 -0.029146815 -0.16215008
0.010075046 -0.07531234 -0.100493915 -0.08577797 -0.065396495 0.009018396 -0.030724682 0.0060601314
-0.006458422 -0.009425096 0.028441392 -0.03314741 -0.051746547 -0.05863027 -0.04212036 0.014565306
0.07366371 0.048408084 0.012538204 0.03288879 0.06493936 0.032285925 -0.123751216 0.0033923048
-0.05052289 -0.07353674 -0.09964904 0.014648615 0.0333877 0.01717643 -0.025493056 0.04166975
-0.004142049 0.0030295437 -0.067479685 -0.12769583 -0.13730447 -0.13790171 -0.03736496 0.013892647
0.013458566 0.027017789 0.066575006 0.10129328 0.09007379 -0.043464825 -0.014825745 -0.07021718
-0.04969396 -0.05431953 -0.009945939 0.03470313 -0.02905312 0.027799012 0.060969945 0.04750036
0.012777741 -0.0743744 -0.13440812 -0.16533 -0.10331176 -0.06730548 -0.0296902 0.027462387
0.0025561675 0.0149107305 0.10787328 0.06227032 -0.016237086 -0.06969728 -0.12419401 -0.12579821
00000000: eddc 1cbd 4372 c8bb 74dd 24bd 54b2 a4bd
00000010: db83 b6bd 025a 82bd 7573 b7bc f65b 2ebd
00000020: e1cb bbbd 1695 94bd e6d4 95bd 0e62 c6bd
00000030: c79e a2bd aa76 cdbd 3e9e d4bd 8a55 0abe
00000040: 1541 12be beb3 dcbd 0570 c7bd 0bd7 cbbd
00000050: 60db 86bc 8168 99bc 482b 06bd 1436 43bd
00000060: 1680 52bd cad6 a5bd 1d41 97bd 89c2 a3bd
00000070: 2a6f a0bd 7719 a1bc 1d75 51bd 204d 1dbd
00000080: 276a e2bd 06ee 0dbd 26cc bfbd 1ccf d7bd
00000090: 02a1 cebd 832a a2bd 20d7 c5bd fdc9 afbd
000000a0: 3878 a9bd a023 d7bd 1cb3 c1bd 649a d8bd
000000b0: 6ee8 e1bc 260c c4bd 4207 ee3c 341a 04bc
000000c0: 800c c2bc c402 90bd 8d0d 98bd 17c0 72bd
000000d0: 9555 38bd 09e9 02bd 8aa9 04bd 9e11 80bd
000000e0: 65e7 a9bc cc9b 50bc 39fc debc 2676 3fbd
000000f0: a6e7 08bb 6400 9bbd 8c78 61bd 219f 49bd
00000100: 62a3 56bd b1af 61bd 5e07 d7bc 0eea e2bd
00000110: fa7d ebbd 0917 23bd 61be 24bd ca64 9ebd
00000120: 22d8 babd c618 93bd f58d a6bc 3648 2cbd
00000130: 665a 0bbd f7f1 4bbd 36f7 963c 75de 3d3d
00000140: f8da 1d3d 0824 a53c f65d 3d3d cb9b 673a
00000150: 8761 593d a22e 07bc cf00 48bd 1624 75bc
00000160: 96b6 ebbc ac26 88bd dd1a bcbd 910e 55be
00000170: 2a44 9dbd 13d6 afbc 594e e1bd 8dea babd
00000180: 3541 3abb fe3b 2b39 8967 7bbd 680a 8ebd
00000190: 8014 0f3a 926a 49bc c53f 0b3d 1fa8 263d
000001a0: 654c b53c 8b48 9d3d 9134 ab3d bd43 9d3d
000001b0: 4f2c 963d 3218 d7bc 3457 2f3d 9b7d e33c
000001c0: 37b5 09bc 0c78 25be f17c 24be 0b85 1b3d
000001d0: ffc5 83bd eea7 a2bd 9c5b 89bd 4e28 95bd
000001e0: ba86 aabc 72e6 a7bd d258 85bd 1c0e 113b
000001f0: 8e8c ed38 0ab5 5c3c 3169 643d 7f52 5a3d
00000200: 89a4 0a3d b205 273d 21b2 5e3d f738 b83d
00000210: 7948 e63c 6232 a03c 9020 333d 4eb3 24bc
00000220: 2e0a dbbd 2d47 76be a926 303d d3e8 bdbd
00000230: 4e6d 06be 1b2b 66bd a078 5fbd 9a4f 66bc
00000240: e42e 86bd b4ec 6abd 660b 0a3d 8d7d 19bd
00000250: 525e a03b df6b c03b 3558 633d 7f05 5c3d
00000260: 9545 bf3d edae 833d c144 c73d 9814 423d
00000270: 05ef c23b c15e 8b3c 3520 023d 0d34 b6bd
00000280: aae0 36be 4819 87bc b42d 81bd b729 cabd
00000290: 2fdc 88bd e0ea 9fbd 1ca0 4abd 2685 f23b
000002a0: 6796 54bd d1f1 14bd f28f 02bd 1c8f 023d
000002b0: bfd7 613d 90e8 293d d43c 11ba 9b71 673d
000002c0: f38f a93d 3e2a 153d 9441 6c3c fd8d e53c
000002d0: bbc8 613d 7a1b 493d 4dc5 eebc ac0a 26be
000002e0: ce11 253c 5b3d 9abd c1cf cdbd 5cac afbd
000002f0: 99ee 85bd e5c1 133c 54b2 fbbc 1194 c63b
00000300: 2ca1 d3bb b86b 1abc ecfd e83c 94c5 07bd
00000310: 30f4 53bd 4b26 70bd 6686 2cbd 52a3 6e3c
00000320: 00dd 963d 8e47 463d 0a6d 4d3c 65b6 063d
00000330: edfe 843d 3f3e 043d 4771 fdbd 6e51 5e3b
00000340: 17f1 4ebd 6e9a 96bd cc14 ccbd bf00 703c
00000350: 8ac1 083d 96b5 8c3c d0d6 d0bc e6ad 2a3d
00000360: 06ba 87bb 4f8b 463b ca32 8abd b2c2 02be
00000370: 8b99 0cbe 1b36 0dbe 000c 19bd fc9d 633c
00000380: 5181 5c3c 6954 dd3c 7a58 883d da72 cf3d
00000390: 9b78 b83d 2c08 32bd aee7 72bc 06ce 8fbd
000003a0: e58b 4bbd 287e 5ebd 4bf4 22bc df24 0e3d
000003b0: cf00 eebc c1ba e33c 9fbb 793d bd8f 423d
000003c0: bb59 513c 9b51 98bd 48a2 09be 444c 29be
000003d0: 1e95 d3bd 75d7 89bd dd38 f3bc cdf8 e03c
000003e0: 6085 273b 234c 743c abec dc3d 2a0f 7f3d
000003f0: a303 85bc 73bd 8ebd 6e59 febd 3fd1 00be

fc_layers.0.bias f4 [10]
-0.03617931 0.11388502 0.0050548054 -0.0626161 0.055008657 0.108682014 0.011491885 0.03560238
-0.18032178 -0.06126855
00000000: c230 14bd 8d3c e93d c8a2 a53b df3c 80bd
00000010: c250 613d ad94 de3d 7648 3c3c cdd3 113d
00000020: 46a6 38be bbf4 7abd
