Experiment-3/mnist_2D/models/baseline_fourlayer.pt (torch, 6107 bytes, 5 tensors)

conv_layers.0.weight f4 [1, 1, 4, 4]
-0.08105571 -0.1317364 0.35108688 -0.073070124 -0.026271783 0.202003 0.1312217 0.19631553
0.1964377 0.16245434 0.32400933 0.15432036 0.06532553 0.290391 0.28541157 0.27502602
00000000: 8900 a6bd e8e5 06be a9c1 b33e caa5 95bd
00000010: ec37 d7bc e0d9 4e3e fb5e 063e f006 493e
00000020: f726 493e 6e5a 263e 8de4 a53e 2806 1e3e
00000030: 64c9 853d 21ae 943e 7721 923e 36d0 8c3e

conv_layers.2.weight f4 [1, 1, 4, 4]
0.08944984 0.12648872 0.0430232 0.35562846 0.12151174 0.34618965 0.012231228 0.18940341
0.35583028 0.023119343 0.26311773 0.06357444 0.3427578 0.36764446 0.26267976 0.0826173
00000000: 7a31 b73d 4286 013e 1839 303d ef14 b63e
00000010: 26db f83d c53f b13e 7d65 483c f8f2 413e
00000020: 632f b63e c764 bd3c 5eb7 863e 5133 823d
00000030: f37d af3e e53b bc3e f67d 863e 4233 a93d

conv_layers.4.weight f4 [1, 1, 4, 4]
-0.099393435 0.15805484 0.1200228 -0.108200036 -0.13368264 -0.018718231 0.25580108 0.33423936
0.0051617394 0.121968545 0.16968364 0.16736785 0.3305041 0.18876538 0.12722233 0.03485288
00000000: c98e cbbd 21d9 213e 84ce f53d fb97 ddbd
00000010: 1ae4 08be fa56 99bc 5cf8 823e 6c21 ab3e
00000020: cf23 a93b a5ca f93d 8cc1 2d3e 7a62 2b3e
00000030: d537 a93e b64b 413e 9246 023e e5c1 0e3d

fc_layers.0.weight f4 [10, 100]
-0.12893334 -0.066151835 -0.06568058 -0.12207842 0.007245074 -0.0077833324 -0.0193394 -0.08643647
-0.09394547 -0.13019696 -0.13512881 -0.11616278 -0.08770468 0.04363159 -0.0064352816 0.07754102
-0.01348472 0.12818804 -0.008065061 -0.060909446 -0.14865914 -0.04016656 -0.039606683 0.012544858
0.006523762 0.058973156 0.0761862 -0.0101469755 0.10339593 -0.055031274 -0.06799128 -0.06012667
-0.0038492845 -0.049313426 0.089823864 -0.0029622717 -0.011906448 0.027852425 0.06945144 0.026123624
-0.12790903 -0.013023727 -0.056027368 -0.02141288 0.028940888 -0.29061905 -0.18142082 -0.09234944
0.021585716 0.03499915 0.03313011 0.007590349 0.09962548 0.054825027 -0.12454549 -0.28561345
-0.19589719 -0.011529666 0.085949674 0.07314579 -0.008922301 -0.005010122 0.13653333 0.09570516
-0.17004459 -0.2883264 -0.048201416 -0.064696684 0.047188528 0.06458528 -0.13196352 -0.008664539
0.039350595 0.062593 0.014051737 -0.07586348 -0.023600457 0.039932556 -0.011343151 0.020537611
0.004244061 0.063098915 0.018143289 0.06616264 0.12262478 0.050010964 0.021734314 -0.06380284
-0.066527866 -0.027742421 -0.09790591 -0.003390799 0.1102333 0.008695146 0.12513497 -0.002056934
-0.059923414 -0.2108937 -0.08784884 -0.09036609 0.032211773 0.06761576 -0.035730552 -0.09077684
0.10900112 0.02937046 -0.027351085 -0.050263204 -0.010588716 0.08991829 0.09247373 -0.016228078
-0.11949665 -0.06841453 0.0003393185 0.059332564 -0.07340512 -0.03445498 0.057614043 -0.039150823
-0.07655426 -0.18858154 -0.03599013 -0.19267258 -0.10441363 0.0016961638 -0.028127473 0.024135955
-0.104087725 -0.19297604 0.011773844 -0.15665 -0.09156792 -0.16733867 0.010253212 0.16125545
0.12696153 -0.16015108 -0.05829556 -0.15266955 -0.06071631 -0.06287716 -0.07427576 -0.2922913
-0.022915877 0.16362077 -0.01271699 -0.19634151 -0.17205529 -0.22438613 -0.07335826 0.009034794
-0.17053735 -0.30563006 -0.04213584 0.19063103 -0.031885874 -0.19961238 -0.23830946 -0.08092236
-0.09669363 -0.2167166 -0.18942215 -0.1429173 0.12808612 0.09532959 -0.2198552 -0.13770583
-0.0020046125 -0.05707849 -0.19908865 -0.08661242 -0.088916235 0.084058546 0.0010011019 0.12227876
-0.07026688 -0.077928424 0.004912016 -0.08766449 -0.034446754 0.053288266 0.052429236 -0.04764979
-0.010716951 -0.038927555 -0.009520986 0.037387688 -0.015267493 -0.0900014 0.031502154 0.18621315
0.07652485 -0.12898189 -0.20957197 0.14878659 0.14005247 0.051210355 -0.05950777 0.03013191
-0.14963262 -0.018180158 0.032576464 0.11138248 0.1428244 0.030814502 0.07838215 0.06027884
-0.114780135 -0.13806248 -0.0015204782 0.03775592 0.08127666 0.056670245 0.102624446 0.02620676
0.080879584 -0.11431652 -0.1481352 -0.11488285 -0.073326506 0.09799835 0.09563331 0.054375496
0.050067153 0.0060080686 0.031622525 0.045913592 0.009188955 -0.1698943 -0.028751131 -0.03871338
-0.17675151 -0.20581618 -0.14336699 -0.23573288 -0.08944967 -0.09004549 -0.06973136 -0.20307124
-0.16171503 -0.17454064 -0.28000066 -0.14007251 -0.19596648 -0.07256949 -0.08584968 -0.067853555
-0.13449796 -0.121121064 -0.10521718 -0.1634104 -0.030847084 -0.047228783 0.018806254 -0.02778273
00000000: 1a07 04be 9d7a 87bd 8a83 86bd 4004 fabd
00000010: 1668 ed3b 530b ffbb a96d 9ebc 9b05 b1bd
00000020: 7c66 c0bd 5a52 05be 355f 0abe c0e6 edbd
00000030: 839e b3bd 0ab7 323d 0edf d2bb d4cd 9e3d
00000040: 04ef 5cbc ba43 033e 5123 04bc 2f7c 79bd
00000050: 1a3a 18be b185 24bd 9e3a 22bd f388 4d3c
00000060: 48c5 d53b d68d 713d 8307 9c3d 803f 26bc
00000070: 3fc1 d33d 7968 61bd 033f 8bbd 6247 76bd
00000080: 4744 7cbb e0fc 49bd 93f5 b73d ac22 42bb
00000090: 4313 43bc c52a e43c 8e3c 8e3d 3601 d63c
000000a0: 96fa 02be 7861 55bc f47c 65bd 106a afbc
000000b0: 7115 ed3c 05cc 94be 61c6 39be b421 bdbd
000000c0: 87d4 b03c 455b 0f3d 70b3 073d 76b8 f83b
000000d0: 7208 cc3d 3590 603d b511 ffbd ed3b 92be
000000e0: 4699 48be ede6 3cbc 6206 b03d 76cd 953d
000000f0: d82e 12bc f32b a4bb 65cf 0b3e 1101 c43d
00000100: 2b20 2ebe 859f 93be d96e 45bd b27f 84bd
00000110: c248 413d 4a45 843d 7221 07be b6f5 0dbc
00000120: 172e 213d c230 803d 4239 663c 505e 9bbd
00000130: bf55 c1bc 5290 233d a0d8 39bc 7e3e a83c
00000140: c411 8b3b 013a 813d 3ca1 943c 4780 873d
00000150: b322 fb3d 4cd8 4c3d 290c b23c 10ab 82bd
00000160: c33f 88bd 1344 e3bc e582 c8bd 2b38 5ebb
00000170: ffc1 e13d 1676 0e3c 6223 003e a0cd 06bb
00000180: 4172 75bd 85f4 57be 18ea b3bd db11 b9bd
00000190: 7ef0 033d 227a 8a3d 335a 12bd 35e9 b9bd
000001a0: fb3b df3d 529a f03c 620f e0bc cae0 4dbd
000001b0: 4b7c 2dbc 1527 b83d de62 bd3d bff0 84bc
000001c0: a9ba f4bd eb1c 8cbd 8fe6 b139 b406 733d
000001d0: 6c55 96bd aa20 0dbd b4fc 6b3d 9d5c 20bd
000001e0: 7bc8 9cbd 851b 41be 636a 13bd f64b 45be
000001f0: d0d6 d5bd d051 de3a 966b e6bc c4b8 c53c
00000200: f22b d5bd 839b 45be 15e7 403c dc68 20be
00000210: f687 bbbd d45a 2bbe 17fd 273c 2620 253e
00000220: 3402 023e a5fe 23be 53c7 6ebd 6855 1cbe
00000230: aab1 78bd bec5 80bd e41d 98bd 35a7 95be
00000240: 14ba bbbc 348c 273e ec5a 50bc c00d 49be
00000250: 432f 30be 7ac5 65be db3c 96bd ac06 143c
00000260: 58a1 2ebe 8b7b 9cbe a196 2cbd c834 433e
00000270: c39a 02bd 3067 4cbe 6507 74be 9fba a5bd
00000280: 4f07 c6bd f5ea 5dbe e1f7 41be ea58 12be
00000290: 0229 033e 293c c33d b921 61be c202 0dbe
000002a0: d15f 03bb 22cb 69bd e5dd 4bbe da61 b1bd
000002b0: b719 b6bd e326 ac3d 6837 833a 496d fa3d
000002c0: 15e8 8fbd f098 9fbd faf4 a03b 7189 b3bd
000002d0: 0a18 0dbd cc44 5a3d 0ac0 563d 6d2c 43bd
000002e0: 2796 2fbc 8072 1fbd e9fd 1bbc d523 193d
000002f0: 8224 7abc a752 b8bd 6708 013d a9ae 3e3e
00000300: 10b9 9c3d d413 04be 099a 56be 835b 183e
00000310: ea69 0f3e f3c1 513d 6bbe 73bd 32d7 f63c
00000320: 4b39 19be 8eee 94bc e66e 053d 7f1c e43d
00000330: 8f40 123e b26e fc3c d286 a03d f2e6 763d
00000340: d911 ebbd 4060 0dbe c84a c7ba f4a5 1a3d
00000350: 6174 a63d 0f1f 683d c42c d23d 8faf d63c
00000360: 32a4 a53d c81e eabd c1b0 17be b347 ebbd
00000370: 352c 96bd 5cb3 c83d 66db c33d d7b8 5e3d
00000380: 3713 4d3d 55df c43b 9f86 013d e40f 3c3d
00000390: 458d 163c c5f8 2dbe 7e87 ebbc ec91 1ebd
000003a0: 59fe 34be 7ac1 52be ccce 12be f663 71be
000003b0: 6331 b7bd c569 b8bd 51cf 8ebd e8f1 4fbe
000003c0: a098 25be c8ba 32be 3f5c 8fbe 2b6f 0fbe
000003d0: 70ab 48be 509f 94bd f5d1 afbd cef6 8abd
000003e0: d5b9 09be 520e f8bd 1b7c d7bd 0e55 27be
000003f0: 06b3 fcbc f872 41bd 930f 9a3c 9c98 e3bc

fc_layers.0.bias f4 [10]
-0.09696087 0.13730158 -0.010200425 0.010411429 0.025779577 0.108517915 -0.09543339 -0.010042826
-0.09358678 -0.037349492
00000000: 6c93 c6bd c998 0c3e af1f 27bc b394 2a3c
00000010: b12f d33c a43e de3d 9572 c3bd aa8a 24bc
00000020: 6daa bfbd c8fb 18bd
